trained_models/Continuous2D-v0/good_combo/1/agent_reward_model_Continuous2D-v0_2021-10-18_16-37-18_58.pt (torch, 61955 bytes, 15 tensors)

l1.weight f4 [64, 6]
0	0x3e8f14fb	0.27945694
1	0xbd0cea16	-0.03440293
2	0x3cf2c753	0.02963606
3	0x3e870ff3	0.26379356
4	0x3e68030b	0.22657411
5	0xbcde9300	-0.027169704
6	0xbea2d153	-0.31800327
7	0xbc995118	-0.018715426
8	0xbe8f821e	-0.2802896
9	0x3ec25153	0.3795267
10	0x3eba6189	0.36402538
11	0xbe9e1f60	-0.30883312
12	0xbdfeefb3	-0.12448063
13	0x3d8668fb	0.06562992
14	0x3df9f3be	0.12204693
15	0xbeaa5486	-0.3326761
16	0xbea43d43	-0.3207799
17	0x3ebcb07b	0.36853394
18	0x3e38a740	0.18032551
19	0x3e968aaf	0.29402682
20	0xbe9775a2	-0.29581934
21	0x3e80837e	0.2510032
22	0xbc5b219b	-0.013374711
23	0x3e33e4f2	0.17567804
24	0x3e2ee8cf	0.17080997
25	0x3e48852b	0.1958205
26	0x3ea2bd66	0.31785125
27	0xbeccf39d	-0.40029612
28	0xbe3ae5e3	-0.18251757
29	0xbec09926	-0.37616843
30	0xbdbdde23	-0.09270885
31	0xb9a46c09	-0.0003136101
32	0xbe2bf26b	-0.16791694
33	0x3ecd6a4d	0.40120164
34	0x3ec075d7	0.37589905
35	0xbe84319a	-0.25819093
36	0xbec2cee5	-0.38048473
37	0x3bb79deb	0.005603542
38	0x3e4a85c4	0.1977759
39	0x3d08cdcf	0.0333994
40	0x3ea7e34d	0.32790604
41	0xbebb0b59	-0.36532095
42	0xbdecb7a9	-0.11558468
43	0xbe5c4caf	-0.21513627
44	0xbec71406	-0.38882464
45	0x3e269f19	0.16271628
46	0xbec00fc3	-0.37512025
47	0xbd7bc30e	-0.061465316
48	0x3e45f094	0.19330055
49	0x3b62aedd	0.003458909
50	0x3e073418	0.13203466
51	0x3eadbbe1	0.33932403
52	0xbe83ce2a	-0.25743228
53	0x3ebd5026	0.3697521
54	0xbecba6e8	-0.39775777
55	0xbbeb9edf	-0.00719057
56	0x3e804c41	0.25058177
57	0xbe1e2f94	-0.15447837
58	0x3e036f7e	0.128355
59	0x3e6fd32d	0.23420401
60	0xbe828005	-0.25488296
61	0xbe4fccd5	-0.20292981
62	0x3dd451ae	0.10367142
63	0xbe862acf	-0.26204535
64	0xbecc5eb9	-0.39916018
65	0xbeb87d33	-0.3603302
66	0x3ea03b50	0.31295252
67	0xbe078a6d	-0.13236399
68	0xbe478750	-0.19485211
69	0x3df9d724	0.12199238
70	0xba8e225b	-0.0010843979
71	0xbcad44b0	-0.021150917
72	0x3eb98533	0.36234435
73	0x3e3d53aa	0.18488947
74	0x3e265571	0.16243531
75	0xbe289ef7	-0.1646689
76	0x3d57f9fb	0.052728634
77	0x3ea94758	0.33062243
78	0x3df06a44	0.117390186
79	0x3d85a7e7	0.065261655
80	0xbb549451	-0.0032437036
81	0xbe90f1d3	-0.28309497
82	0xbe5e6b35	-0.21720584
83	0xbe568147	-0.20947753
84	0xbea10187	-0.31446478
85	0x3e0ba16c	0.13635796
86	0xbd35a4cf	-0.044346627
87	0x3de9a9ca	0.11409338
88	0xbc9d8d43	-0.019232398
89	0xbd8eec56	-0.06978671
90	0xbd3c283a	-0.0459368
91	0xbecd095c	-0.40046203
92	0x3c70077e	0.014650224
93	0x3eb85d58	0.36008716
94	0x3e4442b8	0.19166076
95	0x3e2ad83c	0.1668405
96	0xbe8e6b84	-0.27816403
97	0x3d53140d	0.051532794
98	0xbbae4cb9	-0.0053192046
99	0x3e08fa87	0.13376819
100	0xbda9b8cc	-0.082872
101	0x3e86b481	0.2630959
102	0xbe604ac2	-0.21903518
103	0x3d02c013	0.031921457
104	0x3eae089c	0.33990943
105	0xbe6c0426	-0.23048458
106	0x3d09ba9f	0.03362524
107	0x3e4a3965	0.19748457
108	0x3e9d95f0	0.30778456
109	0xbecec74e	-0.40386432
110	0x3dabe864	0.08393934
111	0xbd9acbd2	-0.07558407
112	0xbe92aa19	-0.286454
113	0xbea99ea8	-0.33128858
114	0x3eaeaebc	0.34117687
115	0xbe8ddafd	-0.27706137
116	0xbeb9fd2f	-0.36325976
117	0xbe3ad87e	-0.18246648
118	0xbd864190	-0.06555474
119	0x3c315a5a	0.010824764
120	0x3dd81b6e	0.10552107
121	0x3eb47f4d	0.35253373
122	0xbd92e227	-0.071720414
123	0xbdd62612	-0.1045648
124	0xbdbfc29b	-0.0936329
125	0xbeaf90a8	-0.3429005
126	0x3e331a22	0.17490438
127	0x3a3a089d	0.00070966204
128	0x3e67e1c5	0.22644718
129	0x3cec60f2	0.02885482
130	0xbdeaf1ab	-0.11471876
131	0x3a35e32b	0.0006938453
132	0x3dbdeb7b	0.0927343
133	0x3e9f7c24	0.311494
134	0x3dd002c0	0.101567745
135	0x3e0c7e0a	0.13719955
136	0xbebc23d4	-0.36746085
137	0x3e96de37	0.2946641
138	0xbe2e1d23	-0.17003302
139	0xbe82bdb7	-0.25535366
140	0xbeca1895	-0.3947188
141	0x3eabd367	0.33559725
142	0xbec5bd04	-0.3862077
143	0x3e4118f0	0.18857169
144	0x3cbf5148	0.023354188
145	0x3e3c606f	0.18396161
146	0x3e752678	0.23940456
147	0xbec22f39	-0.37926653
148	0x3ea04878	0.3130529
149	0x3ec4b1b6	0.38416833
150	0x3e5645a9	0.2092501
151	0xbdd44ea2	-0.103665605
152	0xbe4d6bc1	-0.20060636
153	0x3dece409	0.11566932
154	0x3ea24b03	0.31697854
155	0xbd431ed0	-0.047636807
156	0xbe254fd1	-0.16143729
157	0x3eca82a9	0.3955281
158	0x3ecf61e7	0.4050438
159	0xbec84026	-0.3911144
160	0x3ec0405e	0.37549108
161	0x3d95e7e6	0.07319622
162	0xbe80a201	-0.251236
163	0xbec23d4b	-0.37937388
164	0x3d71a6c9	0.05899695
165	0x3e1ecfa3	0.15508895
166	0x3ecb63e1	0.3972464
167	0x3e17c99f	0.14823006
168	0x3ed2918c	0.41126668
169	0xbdd99242	-0.106235996
170	0xbeb31e9a	-0.34984285
171	0xbdfd7247	-0.12375312
172	0x3e21751c	0.1576733
173	0xbe0b674b	-0.13613622
174	0x3b7fa98b	0.0039010968
175	0xbd502f63	-0.05082644
176	0x3e9e0c4b	0.30868754
177	0xbe44a79d	-0.19204564
178	0x3d3cba32	0.046076007
179	0x3e548db3	0.20757179
180	0x3ea95a98	0.3307693
181	0x3e661e7f	0.22472571
182	0x3e539acf	0.20664524
183	0x3e61859e	0.22023627
184	0x3e9c2d6d	0.30503407
185	0x3e904452	0.28177124
186	0x3e429872	0.19003466
187	0x3e5bec34	0.21476823
188	0xbe0a5c76	-0.13511834
189	0xbe8df5d3	-0.27726611
190	0x3e3343a8	0.17506278
191	0x3e8d9275	0.276508
192	0xbd651884	-0.055931583
193	0x3d8a19b1	0.067431815
194	0xbec9b624	-0.39396775
195	0x3ea4ff2f	0.3222594
196	0xbe04118b	-0.12897317
197	0x3cc7d5e7	0.024393989
198	0x3e5d312b	0.21600787
199	0x3e9b4c20	0.30331516
200	0xbcaba6b1	-0.020953508
201	0xbc31aa12	-0.010843771
202	0xbddd4d5b	-0.1080577
203	0x3ddffb91	0.10936654
204	0x3e154a01	0.14579011
205	0xbe43ceb3	-0.19121818
206	0xbe8f401a	-0.27978593
207	0xbe684c43	-0.22685342
208	0x3e2a3d26	0.16624889
209	0xbe94e185	-0.29078308
210	0x3e055800	0.1302185
211	0x3df246cb	0.11829909
212	0x3e9afed3	0.3027254
213	0x3eafd6b5	0.34343496
214	0xbeb9d1da	-0.36292917
215	0x3b363e9e	0.002780832
216	0xbea6c63c	-0.32573116
217	0xbecaeb9b	-0.39632878
218	0xbe8897a4	-0.26678193
219	0x3ea3b4e4	0.31973946
220	0x3eae817e	0.3408317
221	0x3cff3e98	0.031157777
222	0xbe4a4fee	-0.19757053
223	0x3e8e2966	0.2776596
224	0xbd48bc5a	-0.04900775
225	0x3d1f9dbe	0.038968794
226	0xbebaae84	-0.3646127
227	0x3eada8a7	0.33917734
228	0x3e8f2fd5	0.2796618
229	0xbe458247	-0.19287978
230	0xbebbb90c	-0.36664617
231	0xbd91bcd9	-0.07116098
232	0xbdca5a7b	-0.09880539
233	0xbd39e1fd	-0.045381535
234	0x3d398f56	0.04530271
235	0xbe78d276	-0.24299034
236	0xbb93df28	-0.0045126863
237	0x3e767f51	0.24072005
238	0xbd536e3f	-0.05161881
239	0xbe797c1d	-0.24363752
240	0xbed71e8e	-0.420155
241	0xbec770bf	-0.38953206
242	0x3e92eef7	0.2869794
243	0x3e8d56a7	0.27605173
244	0x3e8de0f3	0.27710685
245	0xbece198a	-0.4025386
246	0xbe295db5	-0.16539653
247	0x3e3e69d8	0.18595064
248	0x3e2aa567	0.16664658
249	0xbe0b8662	-0.13625482
250	0xbdc2722d	-0.094944336
251	0xbc6489a8	-0.013948835
252	0xbdff7b32	-0.124746695
253	0xbe70a42f	-0.23500131
254	0x3ea3d602	0.31999213
255	0xbe1ad830	-0.15121531

l1.bias f4 [64]
0	0x3e134448	0.14381516
1	0x3de435bd	0.11143062
2	0xbe4908c4	-0.1963225
3	0xbe259fe2	-0.16174272
4	0xbdccacc3	-0.09993889
5	0xbe7e12f0	-0.24811912
6	0x3ec96e01	0.3934174
7	0x3ead40cc	0.338385
8	0xbebf220e	-0.3733067
9	0x3eaf2ddd	0.34214678
10	0x3e6c3428	0.23066771
11	0xbe0ceafc	-0.13761514
12	0xbe35e76f	-0.17764066
13	0xbe3886e2	-0.18020204
14	0x3d5d0850	0.053963006
15	0xbdde12e4	-0.10843447
16	0xbed009af	-0.40632388
17	0xbe772421	-0.24134876
18	0xbe764229	-0.24048676
19	0x3e618a9a	0.22025529
20	0x3eb072eb	0.34462675
21	0xbe13361d	-0.14376111
22	0x3e85fea2	0.26170832
23	0xbe9fc34e	-0.31203693
24	0xbec9f4fc	-0.3944472
25	0xbeaf9d59	-0.34299734
26	0xbcc14e89	-0.023597019
27	0xbeccfb7f	-0.40035626
28	0xbdbe0faa	-0.092803314
29	0xbdcea4da	-0.10090037
30	0x3eb24d8f	0.34824798
31	0x3d681eb1	0.056669895
32	0xbe81b9f5	-0.25337186
33	0xbc3926ef	-0.011300786
34	0x3e159539	0.14607705
35	0xbdd51595	-0.10404507
36	0x3eb7e5a2	0.35917383
37	0x3eb4e933	0.35334167
38	0x3e013539	0.12617959
39	0x3d974a2f	0.07387196
40	0xbd8f40e3	-0.06994798
41	0xbeb1335a	-0.3460949
42	0x3e946d8d	0.2898983
43	0x3e6ff47c	0.23433107
44	0x3caff26e	0.021477904
45	0xbe1d27e3	-0.15347247
46	0xbecc9154	-0.39954627
47	0xbebbc4d5	-0.36673608
48	0x3e848f99	0.25890806
49	0xbecfca93	-0.4058424
50	0xbe91be88	-0.28465676
51	0xbd05b14c	-0.032639787
52	0x3ea9338a	0.33047134
53	0xbe8fb784	-0.280697
54	0x3e3a7bb6	0.18211254
55	0xbe29a62a	-0.16567293
56	0xbe308723	-0.1723905
57	0xbe59b5c0	-0.21260738
58	0xbdf0d132	-0.11758651
59	0xbe017b3b	-0.12644665
60	0x3ec48792	0.38384682
61	0xbeb248ab	-0.34821066
62	0xbece070f	-0.4023976
63	0x3e067976	0.13132271

l2.weight f4 [64, 64]
0	0x3cfb8a9c	0.030705743
1	0x3de68f1c	0.11257765
2	0xbdfba8f1	-0.122880824
3	0x3d8124f2	0.06305875
4	0x3d04c0a3	0.032410275
5	0x3d5a28ce	0.05326157
6	0x3e08ce4b	0.13359945
7	0x3dc56735	0.09638826
8	0x3caa7575	0.020807961
9	0x3e006c43	0.12541299
10	0xbddaf74f	-0.106917016
11	0xbcc57357	-0.02410285
12	0xbd7de096	-0.06198176
13	0x3d057390	0.032580912
14	0xbcf2af15	-0.029624501
15	0xbdf0735b	-0.11740752
16	0x3dc7a7c6	0.09748797
17	0x3d922462	0.07135846
18	0xbd8fffec	-0.07031235
19	0xbd91677e	-0.07099818
20	0x3cf506c9	0.029910462
21	0x3c949440	0.018137097
22	0x3cec4171	0.028839799
23	0xbdae3e98	-0.085080326
24	0x3ccbe181	0.024887802
25	0xbb491665	-0.0030683514
26	0x3c66bb31	0.014082716
27	0xbd56ec9c	-0.052471742
28	0xbce2e462	-0.027696792
29	0xbdb223e7	-0.08698254
30	0x3c25a425	0.010109936
31	0xbd5958da	-0.05306325
32	0xbddafaf1	-0.106923945
33	0xbceba267	-0.028763963
34	0xbd116d7c	-0.035504803
35	0xbdcc527e	-0.09976672
36	0xbcf8e8ae	-0.030384388
37	0xbda52a6d	-0.08064733
38	0xbdc3ea66	-0.09566192
39	0x3e05b95c	0.1305899
40	0x3d8793eb	0.0662001
41	0xbdd0b242	-0.1019025
42	0xbdcde9ae	-0.100543365
43	0xbdc07b41	-0.09398509
44	0x3d17da9b	0.037073713
45	0xbdd8e698	-0.10590857
46	0x3d918d62	0.07107045
47	0xbc8909a0	-0.016728222
48	0xbd507897	-0.050896253
49	0xbd4cd4ec	-0.050007746
50	0x3a2d574e	0.00066124357
51	0xbd8b9d41	-0.06817103
52	0x3dd23164	0.10263327
53	0xbc8ecc1f	-0.017431317
54	0xbdc8a77f	-0.09797572
55	0x3d026db5	0.031842906
56	0x3d01cadc	0.031687602
57	0xbce5c593	-0.028048312
58	0x3de1f61c	0.1103327
59	0xbda54cf0	-0.08071315
60	0xbdcd0435	-0.10010568
61	0xbd881a2e	-0.066456184
62	0xbd66a594	-0.05631025
63	0xbab37ddc	-0.0013694125
64	0x3cb8cb88	0.022557989
65	0x3de828f4	0.11335936
66	0x3c239035	0.009983112
67	0x3bfd8533	0.007736826
68	0x3e234d51	0.15947463
69	0xbd4dc8ac	-0.050240204
70	0xbdd8032d	-0.10547481
71	0xbd4798b6	-0.04872962
72	0xbd8f0c79	-0.06984801
73	0x3c59ba5b	0.0132890595
74	0xbc442e72	-0.011973964
75	0xbdb9d456	-0.09073703
76	0xbdb0e982	-0.08638288
77	0xbcf354f0	-0.029703587
78	0xbde3aa7c	-0.11116502
79	0x3d6069ac	0.054788277
80	0x3d204a40	0.03913331
81	0x3deceb48	0.11568314
82	0x3c0deeaf	0.008662864
83	0x3d7d83ff	0.06189346
84	0xbdabf9c6	-0.0839725
85	0x3d64ab19	0.055827234
86	0xbde23b16	-0.11046426
87	0xbc5f1b00	-0.013617277
88	0x3c721cdd	0.014777389
89	0x3d6bf6d5	0.057608444
90	0x3db1a0bf	0.08673238
91	0x3dc4ece8	0.09615499
92	0xbdb70b39	-0.089376874
93	0xbd359971	-0.044335786
94	0x3dc7e993	0.097613476
95	0xbd0f55c6	-0.03499391
96	0xbe0399e9	-0.12851681
97	0xbd2d49bc	-0.042306647
98	0x3de5283b	0.11189314
99	0x3de094d3	0.10965886
100	0x3b6da3fd	0.0036261075
101	0xbcdede0d	-0.027205491
102	0xbd931d08	-0.07183272
103	0x3df09557	0.11747234
104	0x3d7a1c25	0.061061997
105	0xbdb29412	-0.087196484
106	0xbdd44a7b	-0.103657685
107	0xbcf6f008	-0.030143753
108	0x3dbd1569	0.09232599
109	0xbd99c678	-0.07508558
110	0x3dc9780e	0.09837352
111	0xbaf1f480	-0.0018459707
112	0xbd139526	-0.03603091
113	0x3dbea99a	0.09309693
114	0xbdf49bfb	-0.119438134
115	0x3e0e17b8	0.13876235
116	0x3e04357f	0.12911032
117	0x3b89974b	0.0041989437
118	0xbd71359a	-0.05888901
119	0xbbff0224	-0.0077822376
120	0xbd4653b4	-0.04841967
121	0xbc7f0512	-0.015565174
122	0xbd62a3ac	-0.05533187
123	0x3d9b47a6	0.07582025
124	0x3d5c8879	0.053841088
125	0xbddc150c	-0.10746202
126	0x3cc821c0	0.024430156
127	0x3c294bda	0.010333026
128	0xbd99a3b6	-0.075019285
129	0xbd0de3b6	-0.03464099
130	0x3cc13910	0.02358678
131	0x3de4c2c2	0.111699596
132	0xbd28338c	-0.041064784
133	0xbd40e7cf	-0.04709607
134	0x3de04c67	0.109520726
135	0xbdc1d5ab	-0.09464582
136	0x3c5f2360	0.013619274
137	0xbc26cfc6	-0.010181373
138	0x3db8c091	0.09021104
139	0x3bf1b467	0.007376242
140	0xbcc5b755	-0.024135271
141	0x3dfa8a1a	0.12233372
142	0x3d193d46	0.03741195
143	0x3d210c92	0.03931863
144	0xbdcf01d8	-0.101077735
145	0xbc2afc80	-0.010436177
146	0xbc58656d	-0.013207776
147	0x3d9be6b5	0.07612363
148	0xbc80c9ce	-0.015721228
149	0xbda12635	-0.078686155
150	0xbd40a8b4	-0.047035888
151	0xbddd11c4	-0.10794404
152	0xbda3ccb2	-0.07998027
153	0xbd650f44	-0.05592276
154	0xbd2d71ce	-0.04234486
155	0x3d5f7018	0.05455026
156	0x3e0056c8	0.12533104
157	0xbbb97200	-0.005659342
158	0xbdddba0f	-0.108265035
159	0x3d9961af	0.07489335
160	0x3d75aec8	0.059981138
161	0x3de40c3e	0.111351475
162	0xbbe36c41	-0.006940395
163	0xbdb32650	-0.08747542
164	0xbcbf6392	-0.023362909
165	0x3d7f2e7d	0.062300194
166	0x3d4da08c	0.050201938
167	0x3d5280bb	0.0513923
168	0x3de40aac	0.11134848
169	0x3cd125a8	0.025530651
170	0xbca43936	-0.020046812
171	0xbdc187fb	-0.09449764
172	0xbd09061f	-0.033453103
173	0x3ddb8738	0.1071915
174	0xbd4d5118	-0.050126165
175	0x3d1767c4	0.036964193
176	0xbd83dc2b	-0.06438478
177	0x3adf2280	0.0017023832
178	0x3dfdfb92	0.12401499
179	0x3d601c10	0.054714262
180	0xbdc749b9	-0.09730858
181	0x3dd0a686	0.10188012
182	0xbb3a59e3	-0.0028434924
183	0xbd003129	-0.031296883
184	0x3dca131c	0.09866926
185	0xbbe7125b	-0.0070517487
186	0xbd5023ac	-0.05081527
187	0x3b8bbb80	0.004264295
188	0x3d84f685	0.06492332
189	0xbde028f6	-0.10945313
190	0xbcfbeaa8	-0.030751541
191	0xbd56b320	-0.05241692
192	0x3dbca830	0.09211767
193	0x3aaad528	0.0013033496
194	0x3dce153a	0.100626424
195	0x3beeb3bb	0.007284609
196	0xbcc742d6	-0.024323862
197	0xbde254ad	-0.11051307
198	0x3d889895	0.06669728
199	0xbdc744d1	-0.097299226
200	0x3da08bbb	0.078391515
201	0x3def8bf8	0.11696619
202	0xbdac8bf5	-0.08425132
203	0x3db05595	0.086100735
204	0xbde2a4d8	-0.11066598
205	0x3d33a740	0.043860674
206	0x3d429405	0.047504444
207	0x3c923a95	0.0178502
208	0xbdfb6aee	-0.122762546
209	0x3dc78884	0.09742835
210	0xbdf9aa4e	-0.12190686
211	0xbd4d9e0a	-0.050199546
212	0xbdefc33c	-0.1170716
213	0x3bb0c68e	0.0053947633
214	0x3d198fe6	0.037490748
215	0x3def1a74	0.116749674
216	0xbdc59feb	-0.096496426
217	0x3db13843	0.08653309
218	0x3d38f552	0.04515583
219	0x3d2bfd90	0.041989863
220	0x3cd5f6b4	0.026118614
221	0xbdaa9356	-0.08328883
222	0xbaea9217	-0.0017896321
223	0x3d7a043c	0.061039194
224	0x3d9ed9a8	0.077563584
225	0x3d9e82bf	0.077397816
226	0xbdaf707e	-0.08566378
227	0xbddaa5af	-0.10676133
228	0xbd124a1a	-0.0357152
229	0xbdd6b2a3	-0.10483291
230	0x3dcdd5f8	0.10050577
231	0xbc2334ca	-0.009961316
232	0x3dff452c	0.12464365
233	0x3c62d950	0.013845757
234	0x3dd5f39e	0.10446857
235	0xbd80affc	-0.06283566
236	0x3daee780	0.08540249
237	0x3d201df4	0.039091066
238	0xbbf29ae0	-0.0074037164
239	0x3dd3a46e	0.10334097
240	0xbcdf2937	-0.027241332
241	0x3df33e2c	0.11877093
242	0x3da6c325	0.081426896
243	0x3d216549	0.039403234
244	0xbd72783d	-0.0591967
245	0xbda4398b	-0.08018788
246	0x3d0bb701	0.034110073
247	0x3dae89e7	0.085223965
248	0xbc8a5c40	-0.016889691
249	0xbd21bed3	-0.039488625
250	0x3cada4e8	0.021196797
251	0x3db9d05d	0.09072945
252	0x3dabf7a5	0.08396844
253	0xbdf795ae	-0.12089096
254	0xbdf1f378	-0.11814016
255	0x3d87ee88	0.06637293

l2.bias f4 [64]
0	0x3d943875	0.07237331
1	0x3cc91547	0.024546279
2	0x3e088824	0.13333184
3	0x3dfd92e7	0.12381535
4	0xbdcf5834	-0.10124245
5	0x3cf7d048	0.030250683
6	0xbdc37a7a	-0.09544845
7	0x3debc838	0.11512798
8	0x3d20cc84	0.03925754
9	0x3d4acd5a	0.049512245
10	0xbcbb95b9	-0.022898542
11	0xbcc556fd	-0.02408933
12	0x3d8d6041	0.069031246
13	0x3c5b71dd	0.013393846
14	0xbdead549	-0.11466462
15	0xbd04ac89	-0.032391105
16	0xbcb02022	-0.021499697
17	0x3d8878e5	0.06663684
18	0x3df2d6e6	0.11857395
19	0xbd945250	-0.07242262
20	0x3d784755	0.060614903
21	0xbc702307	-0.014656789
22	0xbda181c0	-0.07886076
23	0x3d28474b	0.041083615
24	0x3de0db6a	0.1097935
25	0xbddc134a	-0.107458666
26	0xbba8288b	-0.005131786
27	0x3dbd7e78	0.092526376
28	0x3d0c2886	0.034218334
29	0xbd8d4a4b	-0.06898936
30	0x3c0aee37	0.008479646
31	0xbd7bcca8	-0.061474472
32	0x3dd42edc	0.103605
33	0xbc965e06	-0.01835538
34	0xbd365a93	-0.044519972
35	0x3d2ab446	0.04167583
36	0xbdad92a4	-0.08475235
37	0x3db2212e	0.08697735
38	0x3d898668	0.06715089
39	0x3d7fd60b	0.062459987
40	0x3df39be7	0.118949704
41	0xbdbddbbc	-0.09270427
42	0x3ddfd502	0.109293
43	0xbda4c756	-0.08045833
44	0xbdcaa6f4	-0.09895125
45	0x3acf558c	0.0015818342
46	0x3cfb2f2e	0.030662145
47	0xbd477a0b	-0.048700374
48	0xbd69b081	-0.057053093
49	0x3d3ec8e8	0.046578318
50	0xbd99ccb8	-0.0750975
51	0xbd12f1bc	-0.035875067
52	0xbd8ca05a	-0.06866522
53	0x3bfe72c9	0.0077651483
54	0xbcc16f07	-0.023612512
55	0xbdb36b2d	-0.087606765
56	0xbde72ded	-0.112880565
57	0x3bbad3c3	0.0057015135
58	0xbd3c7855	-0.046013195
59	0x3df20e04	0.118190795
60	0xbd38a9c0	-0.04508376
61	0x3dc741a2	0.09729315
62	0xbdda5c0c	-0.10662088
63	0xbe06fa4b	-0.13181417

l3.weight f4 [1, 64]
0	0x3df2f84f	0.11863767
1	0x3c20f0f5	0.009823074
2	0x3d5cd001	0.053909305
3	0x3c29ad1a	0.010356212
4	0x3de87627	0.11350661
5	0xbdae3238	-0.08505672
6	0x3bfc3f40	0.0076979697
7	0xbe0676dc	-0.13131279
8	0xbde3c53a	-0.11121602
9	0xbd3e3d52	-0.0464452
10	0xbe189fe9	-0.14904751
11	0xba26c3c1	-0.0006361567
12	0x3dc584da	0.0964448
13	0xbdfbf02b	-0.12301668
14	0xbd77718b	-0.060411017
15	0xbdcc8820	-0.09986901
16	0xbd47f56e	-0.048818044
17	0x3dd5bd74	0.10436526
18	0x3c9ad98c	0.018902563
19	0xbd84061c	-0.06446478
20	0x3da572e8	0.08078557
21	0xbdb39ee9	-0.08770544
22	0xbd92482e	-0.071426734
23	0xbd83ec49	-0.06441552
24	0x3c0abf80	0.008468509
25	0xbd0c1485	-0.034199256
26	0xbdfcc5f6	-0.123424456
27	0x3cc46526	0.023974013
28	0xbb816d43	-0.0039497926
29	0xbdd62dad	-0.10457931
30	0x3df2e80d	0.118606664
31	0xbdc4507e	-0.09585665
32	0xbd79849a	-0.060917474
33	0x3dd3f40c	0.103492826
34	0xbdd54e1f	-0.10415291
35	0xbc888483	-0.016664749
36	0x3d204f28	0.03913799
37	0x3d6e890a	0.05823616
38	0xbd9def72	-0.07711686
39	0xbcaac394	-0.020845212
40	0xbd78ccb1	-0.060742084
41	0x3d95b118	0.073091686
42	0x3b3a4dc1	0.0028427693
43	0x3d26fb53	0.040767025
44	0x3d557dcc	0.052121922
45	0xbe01fe97	-0.12694775
46	0xbd639f6d	-0.055571962
47	0xbba14b29	-0.00492229
48	0x3dd00adc	0.10158321
49	0xbc80ce23	-0.015723294
50	0xbd96fc2e	-0.07372318
51	0xbd80d2e8	-0.06290227
52	0xbd94435d	-0.07239411
53	0x3d536d61	0.051617984
54	0xbb706ff5	-0.0036687825
55	0x3dbdb788	0.092635214
56	0x3dcfa3a4	0.10138634
57	0x3b69b51b	0.0035660926
58	0xbc8610ef	-0.016365496
59	0x3dd4cada	0.10390253
60	0x3dc8c222	0.09802653
61	0x3de6e3bd	0.112739064
62	0x3d0f0b80	0.034923077
63	0xbd32d58f	-0.043660697

exp_avg f4 [64, 6]
0	0x3ec46f18	0.38366008
1	0xb9835716	-0.0002505115
2	0xbf539621	-0.82650954
3	0xb9e627b3	-0.00043898597
4	0x3f8c62ff	1.0967711
5	0xba5bfe11	-0.0008392046
6	0x3f4f5f7f	0.8100509
7	0x00000000	0.0
8	0x00000000	0.0
9	0x389074be	6.8882e-05
10	0xbf432394	-0.7622616
11	0x00000000	0.0
12	0xb93f2b8c	-0.00018231402
13	0x00000000	0.0
14	0x00000000	0.0
15	0x00000000	0.0
16	0x00000000	0.0
17	0xba3dbe29	-0.0007238114
18	0xb9c6c5a8	-0.00037912768
19	0xb90c26fd	-0.00013365965
20	0x00000000	0.0
21	0xb8c2bce2	-9.285823e-05
22	0x00000000	0.0
23	0xba755072	-0.00093579956
24	0xbf7f0266	-0.99613035
25	0x38fb160c	0.00011972719
26	0x3fb130ba	1.3842995
27	0x00000000	0.0
28	0x00000000	0.0
29	0x00000000	0.0
30	0xbc3b0ef7	-0.011417142
31	0x00000000	0.0
32	0x00000000	0.0
33	0x387fef48	6.1019586e-05
34	0xbd31c03f	-0.04339623
35	0x00000000	0.0
36	0xbec36f46	-0.38170832
37	0x398b32a2	0.0002654987
38	0x3ee18961	0.44050124
39	0x39a2d8a0	0.00031060446
40	0xbfa8b8d8	-1.318141
41	0x00000000	0.0
42	0xbf06ee7e	-0.5270766
43	0x39b062ae	0.00033642858
44	0x00000000	0.0
45	0x39ff6814	0.00048714934
46	0x00000000	0.0
47	0x3a9874e7	0.0011631519
48	0xb9ef14e3	-0.00045601194
49	0x00000000	0.0
50	0x00000000	0.0
51	0xb98bc1e9	-0.0002665662
52	0x00000000	0.0
53	0xba9282b5	-0.001117787
54	0xbec9cbf6	-0.39413422
55	0x38ba1514	8.873097e-05
56	0xbd3593ee	-0.04433053
57	0x00000000	0.0
58	0xbf8f7e3f	-1.1210402
59	0x3a66f3f5	0.0008810156
60	0xbf023201	-0.5085755
61	0x00000000	0.0
62	0x3f01532b	0.5051753
63	0x00000000	0.0
64	0x00000000	0.0
65	0x00000000	0.0
66	0x3e4d81ff	0.20069121
67	0x00000000	0.0
68	0x00000000	0.0
69	0xb9a6edab	-0.00031839064
70	0x00000000	0.0
71	0x00000000	0.0
72	0x3f5919aa	0.84804785
73	0xb9306fbe	-0.00016826295
74	0xbefbe316	-0.4919669
75	0x00000000	0.0
76	0x3a11f00c	0.0005567081
77	0xba9b0176	-0.0011825997
78	0x00000000	0.0
79	0x00000000	0.0
80	0x00000000	0.0
81	0x00000000	0.0
82	0x00000000	0.0
83	0x00000000	0.0
84	0x3f92ef6a	1.1479313
85	0x383472bf	4.302221e-05
86	0x00000000	0.0
87	0x38f88a1a	0.00011851285
88	0xbd7c0c92	-0.061535425
89	0x00000000	0.0
90	0xbc342129	-0.010994234
91	0x00000000	0.0
92	0x00000000	0.0
93	0x396753cd	0.00022061095
94	0xbd1306c5	-0.035895128
95	0xba1679c9	-0.00057401933
96	0x00000000	0.0
97	0x00000000	0.0
98	0x00000000	0.0
99	0x00000000	0.0
100	0x00000000	0.0
101	0x00000000	0.0
102	0x00000000	0.0
103	0x00000000	0.0
104	0x00000000	0.0
105	0x00000000	0.0
106	0x00000000	0.0
107	0x00000000	0.0
108	0xbe4c2e17	-0.19939457
109	0x00000000	0.0
110	0xbeec0ef6	-0.46105164
111	0x00000000	0.0
112	0x00000000	0.0
113	0x00000000	0.0
114	0x3e932235	0.28737035
115	0xb8be8369	-9.084383e-05
116	0xbecd1811	-0.40057424
117	0x3873671b	5.803174e-05
118	0x3f643a0b	0.89151067
119	0xb9af102a	-0.00033390644
120	0x3e8cdf59	0.2751415
121	0xb7dfea92	-2.6692902e-05
122	0xbdfb07d8	-0.122573555
123	0x3823c403	3.904478e-05
124	0x3e89dcc9	0.26926258
125	0xb94e92a1	-0.00019700314
126	0x3f21e709	0.63243157
127	0x00000000	0.0
128	0x3f805ade	1.002773
129	0x3989acc3	0.00026259394
130	0x00000000	0.0
131	0x00000000	0.0
132	0x3eb2fc26	0.34958
133	0x37bc8ba8	2.2476379e-05
134	0x3e0648bd	0.13113685
135	0x395bb5d7	0.00020953208
136	0x00000000	0.0
137	0x39983132	0.00029028353
138	0x00000000	0.0
139	0x00000000	0.0
140	0x00000000	0.0
141	0x00000000	0.0
142	0x00000000	0.0
143	0x00000000	0.0
144	0x369f40e7	4.746125e-06
145	0x00000000	0.0
146	0x00000000	0.0
147	0x00000000	0.0
148	0x00000000	0.0
149	0x37bb5ac8	2.233441e-05
150	0xbe038414	-0.12843353
151	0x00000000	0.0
152	0x00000000	0.0
153	0x00000000	0.0
154	0xbf1a6a72	-0.6031867
155	0x00000000	0.0
156	0x3dd965fc	0.10615155
157	0xb88b90fb	-6.655041e-05
158	0x3e48160d	0.19539662
159	0x00000000	0.0
160	0xbcd064ea	-0.025438745
161	0xb91acf63	-0.00014763842
162	0x00000000	0.0
163	0x00000000	0.0
164	0x00000000	0.0
165	0x00000000	0.0
166	0x00000000	0.0
167	0x00000000	0.0
168	0x3f917f4d	1.1366974
169	0xb9250f41	-0.00015741309
170	0x00000000	0.0
171	0xb9912650	-0.000276851
172	0x3e90f05a	0.28308374
173	0x00000000	0.0
174	0x3f43d5c6	0.7649807
175	0x00000000	0.0
176	0x3facf07f	1.3510894
177	0x00000000	0.0
178	0x00000000	0.0
179	0x3a941d6f	0.0011300276
180	0x3e39a750	0.18130231
181	0xb8c0f032	-9.200013e-05
182	0xbeb341da	-0.35011178
183	0xb9120f6f	-0.00013929394
184	0x3f7c692e	0.9859799
185	0xba239539	-0.00062401925
186	0xbe205e89	-0.15661062
187	0x38ba2e43	8.877788e-05
188	0xbe41a69b	-0.18911211
189	0x00000000	0.0
190	0x3ee278b7	0.44232723
191	0x38de0e2c	0.000105884246
192	0xb9472fed	-0.00018995973
193	0x00000000	0.0
194	0x00000000	0.0
195	0xb99cebaf	-0.00029930237
196	0x00000000	0.0
197	0x00000000	0.0
198	0x3d8b7bbc	0.0681071
199	0xb9145f85	-0.00014149964
200	0xbeb444e8	-0.3520882
201	0xb9ee614f	-0.00045467398
202	0x00000000	0.0
203	0xb9a5f671	-0.00031654866
204	0x3ea67244	0.32509053
205	0xb8e3bf9a	-0.00010859892
206	0x00000000	0.0
207	0xb8418360	-4.613714e-05
208	0x3f6f2643	0.9341776
209	0x00000000	0.0
210	0x3e8bb95b	0.27289852
211	0xb907eb8b	-0.0001296235
212	0x3f260408	0.648499
213	0x389ffc32	7.628686e-05
214	0x00000000	0.0
215	0x00000000	0.0
216	0xbe26abcb	-0.16276471
217	0x00000000	0.0
218	0x00000000	0.0
219	0x37d71b5c	2.5642737e-05
220	0xbe1a275b	-0.15054075
221	0x38a880ae	8.034833e-05
222	0x3d098a7c	0.033579335
223	0xb913753c	-0.00014062686
224	0x3d927574	0.07151309
225	0xb98ae4dd	-0.00026491928
226	0x00000000	0.0
227	0xb9c87bc1	-0.00038239177
228	0xbe9828bd	-0.2971858
229	0x389a6523	7.3621304e-05
230	0x00000000	0.0
231	0x370c23ae	8.352958e-06
232	0x3df1cf92	0.11807169
233	0xb992688b	-0.0002792518
234	0xbd0ce0ae	-0.03439396
235	0x00000000	0.0
236	0xbf0483e1	-0.5176373
237	0xb901001e	-0.00012302442
238	0x3e4c6c1e	0.19963118
239	0x00000000	0.0
240	0x3d977b46	0.073965594
241	0x00000000	0.0
242	0x3c8a4094	0.016876496
243	0x00000000	0.0
244	0x3ea97231	0.33094934
245	0x00000000	0.0
246	0x00000000	0.0
247	0x00000000	0.0
248	0x00000000	0.0
249	0x00000000	0.0
250	0x00000000	0.0
251	0x00000000	0.0
252	0x3e8d9968	0.27656102
253	0x00000000	0.0
254	0xbe4162c4	-0.18885332
255	0xba2cc20b	-0.0006590194

exp_avg_sq f4 [64, 6]
0	0x412042a5	10.016271
1	0x3864e821	5.4575623e-05
2	0x4066ad2d	3.6043198
3	0x38daf26f	0.00010440207
4	0x3f80d5ca	1.0065243
5	0x38d7a5c8	0.00010282878
6	0x3e8ce155	0.27515665
7	0x00000000	0.0
8	0x00000000	0.0
9	0x360df42d	2.1152766e-06
10	0x3f477deb	0.7792651
11	0x00000000	0.0
12	0x36b12a97	5.279969e-06
13	0x00000000	0.0
14	0x00000000	0.0
15	0x00000000	0.0
16	0x00000000	0.0
17	0x38a5dbb3	7.908735e-05
18	0x37b64edf	2.1732818e-05
19	0x37826b92	1.5547299e-05
20	0x00000000	0.0
21	0x3679777e	3.7173445e-06
22	0x00000000	0.0
23	0x3906ac4c	0.00012843421
24	0x40188e1b	2.3836734
25	0x37523517	1.2529336e-05
26	0x40e6d749	7.21378
27	0x00000000	0.0
28	0x00000000	0.0
29	0x00000000	0.0
30	0x3acae371	0.001547916
31	0x00000000	0.0
32	0x00000000	0.0
33	0x35eb401f	1.7527526e-06
34	0x3d5c2fa6	0.05375638
35	0x00000000	0.0
36	0x400e1390	2.219944
37	0x38807d69	6.126875e-05
38	0x3f6de6a7	0.9293007
39	0x380ebb98	3.403015e-05
40	0x402ee513	2.7327316
41	0x00000000	0.0
42	0x41218c14	10.096699
43	0x38ce4d85	9.8372846e-05
44	0x00000000	0.0
45	0x38f859ce	0.00011842289
46	0x00000000	0.0
47	0x395b4070	0.00020909472
48	0x382fc9e7	4.1911288e-05
49	0x00000000	0.0
50	0x00000000	0.0
51	0x37cdd26a	2.4535886e-05
52	0x00000000	0.0
53	0x39413154	0.0001842429
54	0x3e79a419	0.24379005
55	0x36e7a405	6.903431e-06
56	0x3c852afe	0.016255852
57	0x00000000	0.0
58	0x3fbd2568	1.477704
59	0x3900c488	0.00012280245
60	0x3faa82d4	1.3321176
61	0x00000000	0.0
62	0x3f8bcf31	1.0922605
63	0x00000000	0.0
64	0x00000000	0.0
65	0x00000000	0.0
66	0x3d9b8bfd	0.0759506
67	0x00000000	0.0
68	0x00000000	0.0
69	0x381377b6	3.515902e-05
70	0x00000000	0.0
71	0x00000000	0.0
72	0x41091226	8.566931
73	0x37ce5f65	2.4601535e-05
74	0x3fba80f1	1.45706
75	0x00000000	0.0
76	0x378ecd8c	1.7023434e-05
77	0x39675ce9	0.00022064488
78	0x00000000	0.0
79	0x00000000	0.0
80	0x00000000	0.0
81	0x00000000	0.0
82	0x00000000	0.0
83	0x00000000	0.0
84	0x3e1353de	0.14387462
85	0x35e0a7b8	1.6738113e-06
86	0x00000000	0.0
87	0x3756ebc0	1.2810284e-05
88	0x3f23f645	0.6404765
89	0x00000000	0.0
90	0x3b44c17a	0.0030022548
91	0x00000000	0.0
92	0x00000000	0.0
93	0x38c546ac	9.406856e-05
94	0x3dd3a4cb	0.10334166
95	0x38636050	5.4210715e-05
96	0x00000000	0.0
97	0x00000000	0.0
98	0x00000000	0.0
99	0x00000000	0.0
100	0x00000000	0.0
101	0x00000000	0.0
102	0x00000000	0.0
103	0x00000000	0.0
104	0x00000000	0.0
105	0x00000000	0.0
106	0x00000000	0.0
107	0x00000000	0.0
108	0x3f16fb3b	0.589771
109	0x00000000	0.0
110	0x3f746e17	0.95480484
111	0x00000000	0.0
112	0x00000000	0.0
113	0x00000000	0.0
114	0x3fc51e97	1.539996
115	0x36f23e5c	7.2194216e-06
116	0x3f3155dd	0.6927164
117	0x394a1d93	0.00019275238
118	0x3f21f93b	0.6327092
119	0x378fd845	1.7147637e-05
120	0x3fab8615	1.3400294
121	0x352b6a4f	6.3857163e-07
122	0x3d2975a7	0.041371968
123	0x3566f0ee	8.6032276e-07
124	0x3ccf4d88	0.025305524
125	0x36db0915	6.527766e-06
126	0x40a0e80e	5.028327
127	0x00000000	0.0
128	0x4080fefb	4.0311255
129	0x37e07e3e	2.6761667e-05
130	0x00000000	0.0
131	0x00000000	0.0
132	0x40254937	2.5825937
133	0x34f14eee	4.4947177e-07
134	0x3d805eef	0.06268107
135	0x38a4fa62	7.866767e-05
136	0x00000000	0.0
137	0x375ecc9f	1.3279873e-05
138	0x00000000	0.0
139	0x00000000	0.0
140	0x00000000	0.0
141	0x00000000	0.0
142	0x00000000	0.0
143	0x00000000	0.0
144	0x33017421	3.014077e-08
145	0x00000000	0.0
146	0x00000000	0.0
147	0x00000000	0.0
148	0x00000000	0.0
149	0x350e172e	5.2932853e-07
150	0x3cea4814	0.028598823
151	0x00000000	0.0
152	0x00000000	0.0
153	0x00000000	0.0
154	0x3f785ff8	0.97021437
155	0x00000000	0.0
156	0x3d42aee2	0.047530062
157	0x36820154	3.8744565e-06
158	0x3e0c5bf2	0.1370695
159	0x00000000	0.0
160	0x3d5711f4	0.052507356
161	0x36631e8a	3.3843412e-06
162	0x00000000	0.0
163	0x00000000	0.0
164	0x00000000	0.0
165	0x00000000	0.0
166	0x00000000	0.0
167	0x00000000	0.0
168	0x3fa02443	1.2511066
169	0x37b4decb	2.1561418e-05
170	0x00000000	0.0
171	0x38a876fd	8.0330276e-05
172	0x3d7faeb9	0.062422488
173	0x00000000	0.0
174	0x401b226d	2.4239762
175	0x00000000	0.0
176	0x40e4be2c	7.1482143
177	0x00000000	0.0
178	0x00000000	0.0
179	0x394a616b	0.00019300512
180	0x3fe9d1aa	1.8267109
181	0x36f7edba	7.3888486e-06
182	0x3f3ec50d	0.74519426
183	0x36ed588a	7.0734577e-06
184	0x3f6ac65e	0.91708934
185	0x3864a28f	5.451083e-05
186	0x3edaad7f	0.42710492
187	0x36ecdb9b	7.0589135e-06
188	0x3e284106	0.16431054
189	0x00000000	0.0
190	0x3d7f8aac	0.062388107
191	0x371aa817	9.218252e-06
192	0x375753aa	1.2834478e-05
193	0x00000000	0.0
194	0x00000000	0.0
195	0x3805ae39	3.187193e-05
196	0x00000000	0.0
197	0x00000000	0.0
198	0x3fb0af93	1.3803581
199	0x3791e8dd	1.7393782e-05
200	0x3f36d598	0.7141967
201	0x39355753	0.00017294036
202	0x00000000	0.0
203	0x37709c9f	1.4341581e-05
204	0x3f903a0e	1.1267717
205	0x372c9d59	1.0288634e-05
206	0x00000000	0.0
207	0x354c1507	7.602652e-07
208	0x3f7e0923	0.9923269
209	0x00000000	0.0
210	0x3f92b950	1.1462803
211	0x37754d17	1.4621087e-05
212	0x3fb80e42	1.4379351
213	0x37ceef80	2.466864e-05
214	0x00000000	0.0
215	0x00000000	0.0
216	0x3da67433	0.08127632
217	0x00000000	0.0
218	0x00000000	0.0
219	0x373790c0	1.0941352e-05
220	0x3ddabf26	0.1068099
221	0x35602191	8.349535e-07
222	0x3fa5377d	1.2907559
223	0x3791ea59	1.7394474e-05
224	0x3cd0a871	0.025470944
225	0x38e2e12f	0.000108184635
226	0x00000000	0.0
227	0x37d1ba89	2.5001604e-05
228	0x3f78933d	0.9709967
229	0x36a499a9	4.9054693e-06
230	0x00000000	0.0
231	0x3813864d	3.517261e-05
232	0x3ec71b9f	0.3888826
233	0x373d4cb7	1.1283139e-05
234	0x3f9dcf28	1.2328844
235	0x00000000	0.0
236	0x3fbc2ee8	1.4701815
237	0x36c9153d	5.9927393e-06
238	0x3b8c2ae6	0.004277575
239	0x00000000	0.0
240	0x3b5585cb	0.0032580968
241	0x00000000	0.0
242	0x3b25324d	0.0025206984
243	0x00000000	0.0
244	0x3dca53fb	0.09879299
245	0x00000000	0.0
246	0x00000000	0.0
247	0x00000000	0.0
248	0x00000000	0.0
249	0x00000000	0.0
250	0x00000000	0.0
251	0x00000000	0.0
252	0x415779a1	13.467195
253	0x00000000	0.0
254	0x3eabb3ab	0.33535513
255	0x39d892d1	0.00041308117

exp_avg f4 [64]
0	0xbf7b25d7	-0.98104614
1	0x3f9183ec	1.1368384
2	0xba3dbfd3	-0.0007238362
3	0xba9857a3	-0.0011622797
4	0xbf7ddd53	-0.9916584
5	0xbd3181ae	-0.043336563
6	0xbf4d2226	-0.8013023
7	0x3f3b213a	0.73097575
8	0xbab57254	-0.0013843277
9	0xbeed02fc	-0.4629134
10	0xbe8bb1c9	-0.27284077
11	0x3e962fac	0.29333246
12	0x3f8a634b	1.0811552
13	0x00000000	0.0
14	0x402c7842	2.69484
15	0xbd147b4d	-0.0362504
16	0x00000000	0.0
17	0x00000000	0.0
18	0xbec2b22e	-0.38026565
19	0xbe9518f0	-0.29120588
20	0x3fa37217	1.2769192
21	0x3f8887a7	1.0666398
22	0x3fcc17d1	1.5944768
23	0x00000000	0.0
24	0x37bb64dc	2.2339103e-05
25	0xbf1a679b	-0.6031434
26	0x3e2dbb59	0.16965999
27	0x00000000	0.0
28	0x3ff28fd2	1.895014
29	0x3facfb53	1.3514198
30	0xbee9d9f7	-0.45674106
31	0xbf94a860	-1.1613884
32	0xb99ce387	-0.0002992416
33	0xbfeb57aa	-1.8386128
34	0x3e261ac7	0.16221152
35	0x3f06796d	0.5252903
36	0x3f283004	0.65698266
37	0x3e7f4170	0.24927306
38	0xbf92446f	-1.1427134
39	0xbf904157	-1.126994
40	0x3eb21635	0.34782568
41	0x00000000	0.0
42	0x3dc027aa	0.09382565
43	0xbec4c961	-0.3843489
44	0xbd87b19a	-0.06625672
45	0x00000000	0.0
46	0x00000000	0.0
47	0x00000000	0.0
48	0xbf2f3f1c	-0.6845567
49	0x00000000	0.0
50	0x395b9447	0.00020940705
51	0x4005c0bd	2.0898888
52	0xbe6bd09f	-0.23028801
53	0x375be776	1.3107308e-05
54	0xbe88f928	-0.2675259
55	0xbd9e08ab	-0.07716497
56	0x00000000	0.0
57	0xbf24a2aa	-0.64310706
58	0x00000000	0.0
59	0x3ec3a9df	0.3821554
60	0xbf3200e6	-0.6953262
61	0x00000000	0.0
62	0x00000000	0.0
63	0x3efb57a2	0.49090296

exp_avg_sq f4 [64]
0	0x402c3dfd	2.6912835
1	0x40528ff8	3.2900372
2	0x38a5e4ac	7.9104066e-05
3	0x393d6fad	0.00018066047
4	0x40e0eb90	7.028755
5	0x3d5c415c	0.05377327
6	0x40653522	3.581368
7	0x41681878	14.505974
8	0x39a7e2c6	0.00032021682
9	0x407a0c5a	3.9070039
10	0x402de018	2.7168026
11	0x3e1cf3d7	0.15327393
12	0x414f0387	12.938361
13	0x00000000	0.0
14	0x40903648	4.506626
15	0x3dd37971	0.103258975
16	0x00000000	0.0
17	0x00000000	0.0
18	0x3fa1f5be	1.265312
19	0x3ffc7e8b	1.9726118
20	0x4044e142	3.0762486
21	0x4105ed4b	8.370433
22	0x4055613e	3.3340602
23	0x00000000	0.0
24	0x350e17d5	5.29338e-07
25	0x3f783b41	0.96965414
26	0x3e3cfcb5	0.18455775
27	0x00000000	0.0
28	0x407c25eb	3.9398143
29	0x40e49a2f	7.1438212
30	0x401a8591	2.4144022
31	0x3f835d14	1.026278
32	0x3805a273	3.1860964e-05
33	0x40b8c1f4	5.773676
34	0x4063c85a	3.5591035
35	0x40095ed1	2.1464121
36	0x3f95b888	1.169694
37	0x3fdfd9b9	1.7488319
38	0x40557c34	3.3357058
39	0x3f3bad04	0.73310876
40	0x3dd32c74	0.10311213
41	0x00000000	0.0
42	0x404d1087	3.2041337
43	0x4061e140	3.5293732
44	0x3f44fe51	0.76950556
45	0x00000000	0.0
46	0x00000000	0.0
47	0x00000000	0.0
48	0x404b1b0c	3.1735258
49	0x00000000	0.0
50	0x3848599b	4.7767167e-05
51	0x41885196	17.039837
52	0x4113f29b	9.24673
53	0x34aa7815	3.175234e-07
54	0x3f24dbb1	0.6439772
55	0x3e66ff64	0.22558361
56	0x00000000	0.0
57	0x3fa4f2f8	1.2886648
58	0x00000000	0.0
59	0x3ece0126	0.4023525
60	0x3fc6d639	1.5534126
61	0x00000000	0.0
62	0x00000000	0.0
63	0x3fd3e17a	1.6553185

exp_avg f4 [64, 64]
0	0x3dc7ebf7	0.097618036
1	0xbf8eec56	-1.1165874
2	0x3982cb7d	0.00024947143
3	0x39aa43b7	0.00032475378
4	0x38938337	7.033947e-05
5	0xbe7cd84f	-0.2469189
6	0xbf26e405	-0.6519168
7	0x3f8c488a	1.0959637
8	0x38dfe8a9	0.00010676805
9	0xbe9d077c	-0.30669773
10	0x3ed41ba2	0.41427332
11	0xbc34672e	-0.011010928
12	0xba9ede64	-0.0012120721
13	0x00000000	0.0
14	0xbee71edc	-0.4514073
15	0xbe2b45ea	-0.16725889
16	0x00000000	0.0
17	0x00000000	0.0
18	0x00000000	0.0
19	0x3f783a6f	0.9696416
20	0x3f682201	0.90676886
21	0x36a22cf7	4.833211e-06
22	0x3f98d9f0	1.1941509
23	0x00000000	0.0
24	0x3749150d	1.1985435e-05
25	0xbd05df6c	-0.032683775
26	0xbf3ad37a	-0.7297894
27	0x00000000	0.0
28	0xbeee8216	-0.46583623
29	0x3925c94d	0.00015810617
30	0x3ea10dd0	0.3145585
31	0xbd5f0f6a	-0.05445806
32	0x37362232	1.0856007e-05
33	0xbd9e2a98	-0.07722968
34	0x3d445977	0.047936883
35	0x399d208b	0.0002996962
36	0xbf29ff3d	-0.6640509
37	0x3f7e8726	0.9942497
38	0x3f5096c5	0.81480056
39	0x3e916904	0.28400433
40	0xbe934c6a	-0.28769237
41	0x00000000	0.0
42	0x3e888ff0	0.26672316
43	0x3ede5acb	0.43428645
44	0xbf128fd2	-0.572507
45	0x00000000	0.0
46	0x00000000	0.0
47	0x00000000	0.0
48	0x3ef5c336	0.48000497
49	0x00000000	0.0
50	0x38852c58	6.350194e-05
51	0x35859eac	9.955452e-07
52	0x3fe4d789	1.7878276
53	0x37c9134a	2.397005e-05
54	0x3f14981a	0.5804459
55	0xbe175827	-0.14779721
56	0x00000000	0.0
57	0xbe512c9a	-0.2042717
58	0x00000000	0.0
59	0x00000000	0.0
60	0x3f3d11af	0.7385511
61	0x00000000	0.0
62	0x00000000	0.0
63	0xbe0d16af	-0.13778184
64	0xbe1d9058	-0.15387094
65	0xbd9c437e	-0.076300606
66	0x37d746c5	2.5662952e-05
67	0x3805c14d	3.1889696e-05
68	0x3d35412a	0.0442516
69	0xbca4bdec	-0.020110093
70	0xbdf01386	-0.11722474
71	0xbdce4e3a	-0.10073514
72	0x3746956b	1.1836509e-05
73	0xbd493d05	-0.04913046
74	0x3ba6b0f0	0.0050870106
75	0xbcd50256	-0.02600209
76	0x3b8a1618	0.0042140596
77	0x00000000	0.0
78	0x3915704d	0.00014251583
79	0xbc5f0e0d	-0.01361419
80	0x00000000	0.0
81	0x00000000	0.0
82	0x3a0e87ce	0.00054371066
83	0xbe50b9a5	-0.20383318
84	0xbe233179	-0.15936841
85	0x3cfb06ec	0.030642949
86	0xbd6e0274	-0.05810781
87	0x00000000	0.0
88	0x35aa7835	1.2700972e-06
89	0xbb30e4b8	-0.0026991796
90	0xbc4ad980	-0.012380958
91	0x00000000	0.0
92	0xbdc3362e	-0.09531818
93	0x3d129c39	0.035793517
94	0xbe71e40f	-0.23622154
95	0xbded12c2	-0.115758434
96	0x359abe59	1.1529293e-06
97	0xbd1474ef	-0.03624433
98	0xbe202929	-0.15640701
99	0x3d361810	0.04445654
100	0xbe331052	-0.17486694
101	0xbd6509ee	-0.055917673
102	0xbe076265	-0.13221128
103	0xbd05ca57	-0.03266367
104	0xbcbfca26	-0.023411822
105	0x00000000	0.0
106	0xbd47aaa5	-0.048746724
107	0xbe001f03	-0.1251183
108	0xbdac2335	-0.08405153
109	0x00000000	0.0
110	0x00000000	0.0
111	0x00000000	0.0
112	0xbe265d1c	-0.16246456
113	0x00000000	0.0
114	0x36b124d5	5.279299e-06
115	0x3ce111bd	0.027474279
116	0xbe3bba76	-0.18332848
117	0x35b98927	1.3823491e-06
118	0xbd8f88af	-0.07008492
119	0xbc45f83e	-0.012083111
120	0x00000000	0.0
121	0xbc8836fa	-0.016627777
122	0x00000000	0.0
123	0x3c3e4e79	0.011615389
124	0xbe2636f7	-0.16231905
125	0x00000000	0.0
126	0x00000000	0.0
127	0xbb2e4cfe	-0.0026596184
128	0xbeeefdea	-0.46678096
129	0xbef62c43	-0.48080644
130	0x00000000	0.0
131	0x00000000	0.0
132	0xbd146ff0	-0.036239564
133	0xbde1bce1	-0.11022354
134	0xbed86367	-0.42263338
135	0x3e0fd1eb	0.14044921
136	0x00000000	0.0
137	0xbe33a5fd	-0.17543788
138	0x3e11daa7	0.14243565
139	0xbe11c5b8	-0.1423558
140	0xbe047539	-0.12935342
141	0x00000000	0.0
142	0xbe406126	-0.18787059
143	0xbd991852	-0.07475342
144	0x00000000	0.0
145	0x00000000	0.0
146	0x3ac5ff79	0.0015106044
147	0xbe825102	-0.2545243
148	0xbe4af37e	-0.19819447
149	0x3b015450	0.0019734092
150	0x3d72b30d	0.059252787
151	0x00000000	0.0
152	0x00000000	0.0
153	0xbc6cdfbc	-0.014457639
154	0xbea6958b	-0.32535967
155	0x00000000	0.0
156	0xbf03ecc4	-0.5153315
157	0x00000000	0.0
158	0xbf36f927	-0.71473926
159	0xbe9fbdd4	-0.31199515
160	0x00000000	0.0
161	0xbe7c0afd	-0.24613567
162	0xbeb12097	-0.34595177
163	0x3a4d1fa2	0.0007824843
164	0xbee1c38f	-0.44094512
165	0x3e27502f	0.16339181
166	0xbdf8c13e	-0.12146233
167	0xbcc4e028	-0.024032667
168	0xbe03a879	-0.12857236
169	0x00000000	0.0
170	0xbe1be467	-0.15223847
171	0xbe1a503b	-0.15069668
172	0xbeb0f981	-0.34565356
173	0x00000000	0.0
174	0x00000000	0.0
175	0x00000000	0.0
176	0xbf081667	-0.53159183
177	0x00000000	0.0
178	0x00000000	0.0
179	0x00000000	0.0
180	0x3cfc231f	0.030778466
181	0x00000000	0.0
182	0x3cb8cdb7	0.02255903
183	0xbd86c18c	-0.06579885
184	0x00000000	0.0
185	0xbdbad677	-0.09122937
186	0x00000000	0.0
187	0x00000000	0.0
188	0xbe87f0ca	-0.26550895
189	0x00000000	0.0
190	0x00000000	0.0
191	0xbe349e49	-0.17638506
192	0xbd142a04	-0.03617288
193	0xbdd144f0	-0.10218227
194	0x37d9d796	2.5968806e-05
195	0x383a3c61	4.4402088e-05
196	0x3d41100d	0.047134448
197	0xbcaef965	-0.021359155
198	0xbd1fb9c7	-0.03899553
199	0x3c7faefb	0.015605683
200	0x375eaa85	1.3271933e-05
201	0x3bcfa410	0.0063366964
202	0x3d458fdd	0.0482329
203	0xbcd79c27	-0.026319576
204	0x3bad931c	0.005297078
205	0x00000000	0.0
206	0xbd2fadba	-0.042890288
207	0xbc6cd154	-0.014454205
208	0x00000000	0.0
209	0x00000000	0.0
210	0x3a3b963e	0.0007155872
211	0xbd2a3f4f	-0.041564282
212	0x3bf52590	0.0074812844
213	0x3d058399	0.032596204
214	0x3d9b1be3	0.07573678
215	0x00000000	0.0
216	0x35b05077	1.313644e-06
217	0xbb3b21ef	-0.0028554162
218	0xbc55ba03	-0.013044837
219	0x00000000	0.0
220	0xbdc9dca6	-0.098565385
221	0x3d1c1975	0.038110215
222	0xbcb3cb41	-0.021947505
223	0xbd61dd96	-0.05514296
224	0x359c3ad9	1.1640033e-06
225	0xbd0bd903	-0.034142505
226	0xbd8cda87	-0.06877618
227	0x3d426e40	0.047468424
228	0xbdd2a845	-0.10286001
229	0x3d4ce88f	0.050026473
230	0xbcac31f9	-0.021019923
231	0x3bedfce6	0.007262814
232	0xbccc01bc	-0.02490317
233	0x00000000	0.0
234	0x3d3f0189	0.046632323
235	0xbce2c2c5	-0.027680764
236	0xbd8924a2	-0.0669644
237	0x00000000	0.0
238	0x00000000	0.0
239	0x00000000	0.0
240	0x3ca57875	0.02019904
241	0x00000000	0.0
242	0x371f4e27	9.495335e-06
243	0x3cefa218	0.029252097
244	0x3c52b972	0.012861596
245	0x36471716	2.9666749e-06
246	0x3a4a5f82	0.000771992
247	0xbc51fbbc	-0.012816366
248	0x00000000	0.0
249	0xbc90ba6f	-0.017667023
250	0x00000000	0.0
251	0x3c4a1441	0.0123339305
252	0x3beb0e80	0.0071733594
253	0x00000000	0.0
254	0x00000000	0.0
255	0x3d273db5	0.040830333

exp_avg_sq f4 [64, 64]
0	0x402be370	2.6857567
1	0x4025b93e	2.5894313
2	0x371e04b7	9.418632e-06
3	0x37b98444	2.211531e-05
4	0x3690a7d8	4.311074e-06
5	0x3e5a1b39	0.21299447
6	0x411817f8	9.505852
7	0x40ebefa6	7.373004
8	0x3630ab32	2.6325692e-06
9	0x40cdcc0e	6.431159
10	0x405cbadb	3.4489048
11	0x37a3ee2b	1.954202e-05
12	0x383e704e	4.5404122e-05
13	0x00000000	0.0
14	0x3eb8d4d2	0.3609987
15	0x3dcd7b15	0.10033242
16	0x00000000	0.0
17	0x00000000	0.0
18	0x00000000	0.0
19	0x40504169	3.2539923
20	0x40d331b9	6.5998197
21	0x32138699	8.58713e-09
22	0x4094f7d7	4.655254
23	0x00000000	0.0
24	0x334d236e	4.7762505e-08
25	0x3aba06d4	0.0014192709
26	0x3fcfe253	1.6240944
27	0x00000000	0.0
28	0x3e8ba3a0	0.27273273
29	0x367e06f6	3.7853001e-06
30	0x411c70ef	9.777572
31	0x3f751c8d	0.9574669
32	0x3333791b	4.178683e-08
33	0x3d10fcc2	0.0353973
34	0x3ff16efd	1.8861996
35	0x37d53617	2.5416766e-05
36	0x410b825b	8.719325
37	0x410072ec	8.028057
38	0x3fa68046	1.3007896
39	0x3e8e7bb0	0.2782874
40	0x3ead632b	0.33864722
41	0x00000000	0.0
42	0x4088d4ef	4.275993
43	0x403e4c99	2.9734251
44	0x3fc5a691	1.5441457
45	0x00000000	0.0
46	0x00000000	0.0
47	0x00000000	0.0
48	0x40a8f1ad	5.2795014
49	0x00000000	0.0
50	0x35ecaf1f	1.7634337e-06
51	0x30d2d4b8	1.5339969e-09
52	0x40f157d8	7.541973
53	0x3509071e	5.1046834e-07
54	0x3ffce93c	1.9758677
55	0x3d874825	0.06605557
56	0x00000000	0.0
57	0x3e1761f5	0.14783461
58	0x00000000	0.0
59	0x00000000	0.0
60	0x40fb7532	7.858056
61	0x00000000	0.0
62	0x00000000	0.0
63	0x3f8ca901	1.0989076
64	0x3d7e6506	0.062108062
65	0x3d234196	0.03985747
66	0x33dd02a9	1.0291598e-07
67	0x34913ccb	2.7052587e-07
68	0x3c2d5658	0.010579668
69	0x3b493094	0.003069912
70	0x3dd00d69	0.10158808
71	0x3be700fc	0.007049678
72	0x331590fe	3.4823636e-08
73	0x3d3a5f66	0.045501135
74	0x3b6cca1b	0.0036131206
75	0x3b62fb00	0.003463447
76	0x3bd225bb	0.006413189
77	0x00000000	0.0
78	0x36def85a	6.6450275e-06
79	0x3abe4d80	0.0014518946
80	0x00000000	0.0
81	0x00000000	0.0
82	0x38e46e9d	0.000108924905
83	0x3d299fc0	0.041412115
84	0x3d40d10b	0.04707436
85	0x3b7b7735	0.0038370613
86	0x3d03a9ac	0.032144234
87	0x00000000	0.0
88	0x30165280	5.468692e-10
89	0x37b7b0b7	2.189759e-05
90	0x3d0056d2	0.0313328
91	0x00000000	0.0
92	0x3c58e196	0.013237378
93	0x3ba130c5	0.004919144
94	0x3e4aed1c	0.19817013
95	0x3ca3e5d3	0.02000705
96	0x2fff64b3	4.645578e-10
97	0x3b8c462b	0.0042808256
98	0x3cfd849e	0.030947026
99	0x3c0575b4	0.008145738
100	0x3db36b40	0.08760691
101	0x3be6ee9c	0.0070474874
102	0x3c9a973a	0.018870939
103	0x3b11d700	0.0022253394
104	0x3b9bb729	0.004752059
105	0x00000000	0.0
106	0x3d365bc4	0.04452111
107	0x3c7e3935	0.015516569
108	0x3ccfb7af	0.025356142
109	0x00000000	0.0
110	0x00000000	0.0
111	0x00000000	0.0
112	0x3e0e37d3	0.13888483
113	0x00000000	0.0
114	0x3266fb91	1.3444962e-08
115	0x3b2bddcc	0.002622473
116	0x3d24efd4	0.04026778
117	0x310df50b	2.0657491e-09
118	0x3b4e7e20	0.0031508282
119	0x3a7f5a3d	0.00097409246
120	0x00000000	0.0
121	0x3b0b7019	0.0021276532
122	0x00000000	0.0
123	0x39e2d727	0.0004326638
124	0x3d7c8af5	0.061655957
125	0x00000000	0.0
126	0x00000000	0.0
127	0x3d0cbb02	0.034358032
128	0x3e9f766c	0.31145036
129	0x3e819979	0.25312403
130	0x00000000	0.0
131	0x00000000	0.0
132	0x37fbd587	3.0020963e-05
133	0x3ca58d52	0.020208988
134	0x3f6e1078	0.9299388
135	0x3f20cb30	0.6281004
136	0x00000000	0.0
137	0x3f2bd6f3	0.6712486
138	0x3eb781f5	0.35841337
139	0x3d328201	0.043581013
140	0x3d11ec4c	0.03562574
141	0x00000000	0.0
142	0x3d22d0c3	0.039749872
143	0x3c1afe0e	0.009459985
144	0x00000000	0.0
145	0x00000000	0.0
146	0x3a9bdacf	0.0011890772
147	0x3ecca68e	0.3997082
148	0x3f0aea38	0.5426364
149	0x3a98e238	0.0011664098
150	0x3ed06033	0.40698394
151	0x00000000	0.0
152	0x00000000	0.0
153	0x3900e7c2	0.00012293368
154	0x3e1e0619	0.15432014
155	0x00000000	0.0
156	0x3e19d370	0.15022063
157	0x00000000	0.0
158	0x3f678192	0.90432084
159	0x3dfd2449	0.123604365
160	0x00000000	0.0
161	0x3d4a47d9	0.049384926
162	0x3e362cea	0.17790571
163	0x3a04a39a	0.0005059779
164	0x3f52497a	0.82143366
165	0x3f379bba	0.71721995
166	0x3e50d28a	0.20392814
167	0x3ccba3ba	0.024858344
168	0x3d07aa0b	0.03312115
169	0x00000000	0.0
170	0x3eb89046	0.36047572
171	0x3e7173c3	0.23579316
172	0x3e1441fb	0.14478295
173	0x00000000	0.0
174	0x00000000	0.0
175	0x00000000	0.0
176	0x3f0f3be1	0.5595074
177	0x00000000	0.0
178	0x00000000	0.0
179	0x00000000	0.0
180	0x3f3c1ad2	0.73478425
181	0x00000000	0.0
182	0x3e28f38a	0.16499153
183	0x3bc524ba	0.006016341
184	0x00000000	0.0
185	0x3c662ed8	0.014049254
186	0x00000000	0.0
187	0x00000000	0.0
188	0x3f2015dd	0.6253336
189	0x00000000	0.0
190	0x00000000	0.0
191	0x3dbd44ad	0.092416145
192	0x3d57fc75	0.052730996
193	0x3d3f6b5e	0.046733253
194	0x33e7e5da	1.07985855e-07
195	0x35a37025	1.2177085e-06
196	0x3c43bdf5	0.011947145
197	0x3b58f227	0.0033103318
198	0x3dcb7c78	0.0993585
199	0x3d243fa3	0.04009975
200	0x33b86074	8.5857124e-08
201	0x3da68c23	0.08132198
202	0x3d2aafcc	0.04167156
203	0x3c7ffa35	0.015623619
204	0x3c5efd8d	0.013610256
205	0x00000000	0.0
206	0x3bf1a170	0.007373981
207	0x3acd3452	0.0015655851
208	0x00000000	0.0
209	0x00000000	0.0
210	0x39d3422a	0.00040294352
211	0x3d86a23b	0.06573912
212	0x3c1abc3a	0.009444291
213	0x3b8d8fe1	0.00432013
214	0x3cd6b249	0.02620806
215	0x00000000	0.0
216	0x302cc374	6.285099e-10
217	0x37c839b5	2.386873e-05
218	0x3d0d005c	0.03442417
219	0x00000000	0.0
220	0x3d2f0fa7	0.042739537
221	0x3bb5c612	0.0055472935
222	0x3db3e693	0.08784213
223	0x3cd438fa	0.025906075
224	0x30006ff5	4.672523e-10
225	0x3c7733c7	0.015088028
226	0x3c9cf976	0.019161921
227	0x3c19c7a2	0.009385975
228	0x3dbc6113	0.09198203
229	0x3d48fc6e	0.04906886
230	0x3d4af583	0.049550544
231	0x3a80fc24	0.0009840769
232	0x3ba798d2	0.005114653
233	0x00000000	0.0
234	0x3c9bca4d	0.019017363
235	0x3b813456	0.0039430065
236	0x3cc43c38	0.023954496
237	0x00000000	0.0
238	0x00000000	0.0
239	0x00000000	0.0
240	0x3db675b2	0.08909167
241	0x00000000	0.0
242	0x33af4d87	8.163175e-08
243	0x3b41b9a1	0.0029560106
244	0x3d9b80a7	0.07592898
245	0x320a1e12	8.039494e-09
246	0x3c0462e6	0.00808022
247	0x3a8ac8e4	0.0010588435
248	0x00000000	0.0
249	0x3b166457	0.002294799
250	0x00000000	0.0
251	0x3a015054	0.00049329293
252	0x3a805f3e	0.0009794009
253	0x00000000	0.0
254	0x00000000	0.0
255	0x3c9e30d3	0.01931039

exp_avg f4 [64]
0	0x3fca3eaf	1.580038
1	0xbed476ba	-0.4149683
2	0xbf331c36	-0.6996492
3	0x343f75a1	1.7831054e-07
4	0xc00c3afb	-2.1911
5	0x00000000	0.0
6	0x00000000	0.0
7	0x379cdf51	1.8700639e-05
8	0x00000000	0.0
9	0x36ab74df	5.1098027e-06
10	0x40047037	2.069349
11	0x39999b66	0.00029298215
12	0x3dfb75e2	0.12278344
13	0x404c371b	3.1908634
14	0x3fd1d1dd	1.639217
15	0x349321c4	2.740545e-07
16	0x3edfb9ae	0.4369635
17	0xbae20fdb	-0.0017247157
18	0x3ebea10a	0.37232238
19	0x00000000	0.0
20	0xbfa2cdc8	-1.271905
21	0x3b3fc4ca	0.0029261583
22	0x39fc20a0	0.00048089493
23	0xb57b43fc	-9.3603717e-07
24	0x3e647723	0.22311072
25	0x368c4439	4.1802673e-06
26	0xbbd32383	-0.0064434423
27	0x362bc5be	2.5596087e-06
28	0x34fc76e7	4.702517e-07
29	0xc0bbd809	-5.8701215
30	0x40936d47	4.6070895
31	0x35261cd8	6.188179e-07
32	0xb6a1ce3a	-4.822182e-06
33	0x39924fd1	0.00027906758
34	0x3fc38561	1.5275079
35	0xb526ec56	-6.2183733e-07
36	0x3f77340b	0.96563786
37	0xb6191132	-2.2808786e-06
38	0xb654689e	-3.1651357e-06
39	0x35d16ad6	1.5602807e-06
40	0x370d3657	8.416907e-06
41	0x00000000	0.0
42	0x394ed6df	0.00019725737
43	0x395f6524	0.00021304615
44	0x3f5f69f5	0.8727105
45	0xc0224229	-2.535288
46	0xbf84e7a8	-1.0383196
47	0xb0e7dc60	-1.6870096e-09
48	0x3b22a51a	0.0024817646
49	0x38bf7877	9.130028e-05
50	0x3ee0ba13	0.43891963
51	0x00000000	0.0
52	0xbc6c44b0	-0.014420673
53	0xbe5ce549	-0.2157184
54	0xbd947c64	-0.07250288
55	0x3b02eca3	0.0019977472
56	0xbfe44df5	-1.7836291
57	0x38481787	4.7705627e-05
58	0x3ade73e8	0.0016971799
59	0xb7898245	-1.6392334e-05
60	0x00000000	0.0
61	0xb714bc8f	-8.86539e-06
62	0x00000000	0.0
63	0x3b59b92e	0.0033221948

exp_avg_sq f4 [64]
0	0x42559dd5	53.404133
1	0x3ecc7281	0.3993111
2	0x4086b845	4.209994
3	0x2b88bc94	9.715722e-13
4	0x417132b9	15.074883
5	0x00000000	0.0
6	0x00000000	0.0
7	0x2f0de5f7	1.2905575e-10
8	0x00000000	0.0
9	0x2df15227	2.743501e-11
10	0x42735026	60.82827
11	0x39322215	0.000169881
12	0x41dbd6c4	27.479866
13	0x41d87312	27.056187
14	0x40c0bc0a	6.022954
15	0x2e876fd8	6.158957e-11
16	0x40b9d970	5.8077927
17	0x39f594b7	0.00046840843
18	0x3ece28c5	0.4026548
19	0x00000000	0.0
20	0x417aa383	15.66492
21	0x3b130a0e	0.0022436413
22	0x3b9148d4	0.0044337306
23	0x2de2b6c2	2.5774386e-11
24	0x3dcbcc36	0.099510595
25	0x2cfe2ead	7.2242962e-12
26	0x3d3dcabe	0.04633593
27	0x2c8f8ec3	4.080154e-12
28	0x2a8fbb22	2.5531752e-13
29	0x41d58323	26.689032
30	0x4227b58d	41.927296
31	0x2e8d8298	6.435136e-11
32	0x2dfb637d	2.8579578e-11
33	0x3a7e3e3b	0.0009698604
34	0x412b2287	10.69593
35	0x2bff87d4	1.815654e-12
36	0x401b11fc	2.4229727
37	0x2df8f7d3	2.8304392e-11
38	0x2e027619	2.966347e-11
39	0x2bf894d1	1.7662765e-12
40	0x2dff3d2f	2.9017315e-11
41	0x00000000	0.0
42	0x38eeac8a	0.00011380862
43	0x38243c66	3.9156897e-05
44	0x41800bbc	16.00573
45	0x423222db	44.53404
46	0x4172f93e	15.18585
47	0x2a83a7d6	2.3386734e-13
48	0x3a5d830e	0.00084500096
49	0x35d24e8f	1.5669083e-06
50	0x41aefcdd	21.873468
51	0x00000000	0.0
52	0x38eda3c6	0.00011331546
53	0x40c8812d	6.2657685
54	0x3d58aa81	0.05289698
55	0x3ab402b4	0.0013733716
56	0x41b00cb1	22.006197
57	0x33642292	5.311683e-08
58	0x3b50c130	0.003185343
59	0x2e93c4f8	6.719775e-11
60	0x00000000	0.0
61	0x2ea5b00f	7.5346056e-11
62	0x00000000	0.0
63	0x3c4a3094	0.0123406835
