trained_models/Continuous2D-v0/good_combo/1/agent_reward_model_SingleIntegrator-v0_2021-10-18_18-15-18_90.pt (torch, 61955 bytes, 15 tensors)

l1.weight f4 [64, 6]
000000 c4 24 8d 3e 97 9a 0c bd cd 62 e3 3c 8a 1c 87 3e
       0.27567112 -0.034327116 0.027757073 0.2638896
000010 62 fa 67 3e f1 0e dd bc 44 a2 a8 be 18 51 99 bc
       0.22654107 -0.026984664 -0.329363 -0.018715426
000020 1e 82 8f be 72 43 c2 3e 58 d7 b9 3e 60 1f 9e be
       -0.2802896 0.37942082 0.36297107 -0.30883312
000030 af 92 fe bd fb 68 86 3d be f3 f9 3d 86 54 aa be
       -0.124303214 0.06562992 0.12204693 -0.3326761
000040 43 3d a4 be 54 c8 bc 3e ea d6 38 3e a0 94 96 3e
       -0.3207799 0.36871588 0.18050733 0.29410267
000050 a2 75 97 be 9b 91 80 3e 9b 21 5b bc 59 15 34 3e
       -0.29581934 0.25111088 -0.013374711 0.17586268
000060 6c c3 3b 3e 57 71 48 3e 58 81 a3 3e 9d f3 cc be
       0.18336266 0.19574486 0.3193462 -0.40029612
000070 e3 e5 3a be 26 99 c0 be 1f cd c0 bd 09 6c a4 b9
       -0.18251757 -0.37616843 -0.09414124 -0.0003136101
000080 6b f2 2b be cc 5c cd 3e 51 da be 3e 9a 31 84 be
       -0.16791694 0.4010986 0.37275937 -0.25819093
000090 a3 ea c0 be bb 21 b5 3b 7b 78 4c 3e f9 50 08 3d
       -0.37679014 0.0055277026 0.19967835 0.033280347
0000a0 5d 65 a7 3e 59 0b bb be 85 83 e6 bd 91 60 5c be
       0.32694522 -0.36532095 -0.11255554 -0.21521212
0000b0 06 14 c7 be da 84 26 3e c3 0f c0 be a5 7f 7c bd
       -0.38882464 0.16261616 -0.37512025 -0.06164517
0000c0 dd 19 46 3e dd ae 62 3b 18 34 07 3e a6 cb ad 3e
       0.19345804 0.003458909 0.13203466 0.33944434
0000d0 2a ce 83 be 49 68 bd 3e e4 a4 c9 be 4b 18 ee bb
       -0.25743228 0.36993626 -0.39383614 -0.0072660795
0000e0 6e 93 7d 3e 94 2f 1e be 92 bc 02 3e 93 a4 6f 3e
       0.24763271 -0.15447837 0.12767246 0.23402624
0000f0 d6 86 7d be d5 cc 4f be 41 c9 d7 3d cf 2a 86 be
       -0.24758467 -0.20292981 0.10536433 -0.26204535
000100 b9 5e cc be 33 7d b8 be 63 56 9f 3e 6d 8a 07 be
       -0.39916018 -0.3603302 0.31120595 -0.13236399
000110 50 87 47 be 16 16 fa 3d 5b 22 8e ba b0 44 ad bc
       -0.19485211 0.12211244 -0.0010843979 -0.021150917
000120 c8 a0 b7 3e 8c 67 3d 3e 93 11 24 3e f7 9e 28 be
       0.35864854 0.18496531 0.16022329 -0.1646689
000130 a3 bd 56 3d ab 5e a9 3e 44 6a f0 3d e7 a7 85 3d
       0.052426945 0.33080038 0.117390186 0.065261655
000140 51 94 54 bb d3 f1 90 be 35 6b 5e be 47 81 56 be
       -0.0032437036 -0.28309497 -0.21720584 -0.20947753
000150 83 ac aa be ee 8d 0b 3e cf a4 35 bd f9 82 e9 3d
       -0.3333474 0.1362836 -0.044346627 0.11401934
000160 00 22 9c bc 56 ec 8e bd 48 c4 3f bd 5c 09 cd be
       -0.019059181 -0.06978671 -0.046818048 -0.40046203
000170 7e 07 70 3c ac 56 b8 3e 7d a3 41 3e ee 05 2b 3e
       0.014650224 0.36003625 0.18910022 0.16701481
000180 84 6b 8e be 0d 14 53 3d b9 4c ae bb 87 fa 08 3e
       -0.27816403 0.051532794 -0.0053192046 0.13376819
000190 cc b8 a9 bd 81 b4 86 3e c2 4a 60 be 13 c0 02 3d
       -0.082872 0.2630959 -0.21903518 0.031921457
0001a0 9c 08 ae 3e 26 04 6c be 9f ba 09 3d 65 39 4a 3e
       0.33990943 -0.23048458 0.03362524 0.19748457
0001b0 fd 3d 9c 3e 4e c7 ce be 43 e8 a7 3d d2 cb 9a bd
       0.30516043 -0.40386432 0.08198597 -0.07558407
0001c0 19 aa 92 be a8 9e a9 be 4e d6 ab 3e 15 d1 8d be
       -0.286454 -0.33128858 0.3356194 -0.2769858
0001d0 62 ab ba be f1 da 3a be 64 d0 85 bd 8e 4e 34 3c
       -0.3645888 -0.18247582 -0.06533888 0.011005057
0001e0 3f 0a d8 3d 16 89 b4 3e fb 00 95 bd 69 57 d6 bd
       0.10548829 0.35260838 -0.07275578 -0.10465891
0001f0 2c 16 c1 bd 11 7a af be cc cf 33 3e 9d 08 3a 3a
       -0.09428057 -0.34272817 0.17559737 0.00070966204
000200 82 3f 69 3e eb 72 eb 3c ab f1 ea bd 2b e3 35 3a
       0.22778133 0.02874132 -0.11471876 0.0006938453
000210 ea 7b bd 3d 50 72 9f 3e 43 a7 cf 3d 31 70 0c 3e
       0.0925215 0.311419 0.101393245 0.13714673
000220 d4 23 bc be e0 c6 96 3e 23 1d 2e be b7 bd 82 be
       -0.36746085 0.29448605 -0.17003302 -0.25535366
000230 95 18 ca be 67 d3 ab 3e 04 bd c5 be f0 18 41 3e
       -0.3947188 0.33559725 -0.3862077 0.18857169
000240 19 d1 be 3c 6f 60 3c 3e 78 26 75 3e 39 2f c2 be
       0.023293065 0.18396161 0.23940456 -0.37926653
000250 78 48 a0 3e b6 a8 c4 3e 7f ff 56 3e a2 4e d4 bd
       0.3130529 0.38409966 0.20995902 -0.103665605
000260 c1 6b 4d be 09 e4 ec 3d 0f 6d a1 3e d0 1e 43 bd
       -0.20060636 0.11566932 0.31528518 -0.047636807
000270 68 b2 24 be 91 8c ca 3e 40 d4 cf 3e 26 40 c8 be
       -0.16083682 0.3956037 0.4059162 -0.3911144
000280 4b bd be 3e f7 45 96 3d 01 a2 80 be 4b 3d c2 be
       0.37253794 0.073375635 -0.251236 -0.37937388
000290 c9 a6 71 3d a3 cf 1e 3e e1 63 cb 3e 9f c9 17 3e
       0.05899695 0.15508895 0.3972464 0.14823006
0002a0 87 32 cf 3e 83 6a d9 bd 9a 1e b3 be 11 4e fd bd
       0.40468237 -0.106160186 -0.34984285 -0.123684056
0002b0 dc 79 1f 3e 4b 67 0b be 35 56 b2 3b 63 2f 50 bd
       0.1557383 -0.13613622 0.0054424056 -0.05082644
0002c0 91 c6 9e 3e 9d a7 44 be 32 ba 3c 3d 06 5e 54 3e
       0.3101087 -0.19204564 0.046076007 0.20738992
0002d0 b6 c3 a6 3e 57 32 66 3e 16 84 51 3e 52 a4 61 3e
       0.3257119 0.2248014 0.20460543 0.2203534
0002e0 9b 31 9c 3e 15 5d 90 3e a5 38 44 3e a1 d8 5b 3e
       0.30506596 0.28196016 0.19162233 0.21469356
0002f0 39 e5 0a be d3 f5 8d be 1f 78 31 3e 3b 88 8d 3e
       -0.13564004 -0.27726611 0.17330979 0.27642998
000300 31 9c 64 bd b1 19 8a 3d 24 b6 c9 be b7 0e a5 3e
       -0.05581302 0.067431815 -0.39396775 0.3223779
000310 8b 11 04 be e7 d5 c7 3c 48 62 5a 3e 11 56 9b 3e
       -0.12897317 0.024393989 0.21326554 0.303391
000320 0e ee b8 bc d6 65 30 bc 5b 4d dd bd 8f 5d e0 3d
       -0.02257445 -0.010766467 -0.1080577 0.10955345
000330 31 6d 10 3e db ba 43 be 1a 40 8f be 40 2d 68 be
       0.14104153 -0.19114248 -0.27978593 -0.22673512
000340 37 5d 2a 3e 85 e1 94 be 3a 7f 06 3e 8a 6e f2 3d
       0.16637121 -0.29078308 0.1313447 0.1183749
000350 ab 86 9b 3e 35 d2 af 3e da d1 b9 be 9e 3e 36 3b
       0.3037618 0.34340063 -0.36292917 0.002780832
000360 31 b9 a3 be 9b eb ca be a4 97 88 be 9d b2 a3 3e
       -0.31977227 -0.39632878 -0.26678193 0.3197221
000370 5e 64 ad 3e 48 a2 fd 3c 39 f0 48 be 46 33 8e 3e
       0.33865637 0.03096117 -0.19622888 0.27773494
000380 5c e5 41 bd 75 d9 1f 3d 84 ae ba be 10 bf ad 3e
       -0.047337875 0.039025743 -0.3646127 0.33934832
000390 76 fc 8f 3e c4 95 45 be 0c b9 bb be 80 be 91 bd
       0.281223 -0.19295412 -0.36664617 -0.07116413
0003a0 79 c5 c9 bd 11 1f 39 bd 47 e4 22 3d 76 d2 78 be
       -0.09852118 -0.045195643 0.039768483 -0.24299034
0003b0 0f 81 d4 bb c6 9c 76 3e 11 96 63 bd 1d 7c 79 be
       -0.0064851115 0.24083242 -0.055563036 -0.24363752
0003c0 1a d0 d8 be bf 70 c7 be 73 8c 92 3e a7 56 8d 3e
       -0.4234627 -0.38953206 0.2862278 0.27605173
0003d0 cc 7f 8d 3e 8a 19 ce be b5 5d 29 be d8 69 3e 3e
       0.27636564 -0.4025386 -0.16539653 0.18595064
0003e0 67 a5 2a 3e 62 86 0b be 2d 72 c2 bd a8 89 64 bc
       0.16664658 -0.13625482 -0.094944336 -0.013948835
0003f0 5e 5d 01 be 2f a4 70 be ee 70 a2 3e 2f c5 1a be
       -0.12633273 -0.23500131 0.31726784 -0.15114282

l1.bias f4 [64]
000000 b4 34 14 3e 7e 74 cd 3d 10 d9 48 be 30 6d 25 be
       0.1447323 0.10031985 -0.19614053 -0.16154933
000010 18 01 b8 bd f3 a4 80 be 04 89 c8 3e 1f 02 ad 3e
       -0.089845836 -0.25125846 0.39167035 0.3379068
000020 62 0b bf be fb 12 ad 3e 2e b5 6e 3e d7 d6 0e be
       -0.37313372 0.33803543 0.23311302 -0.13949142
000030 d8 3f 3a be e2 86 38 be 2e b0 37 3d a1 50 e3 bd
       -0.18188417 -0.18020204 0.044845752 -0.11099363
000040 af 09 d0 be 21 24 77 be 95 f3 78 be 5b cd 62 3e
       -0.40632388 -0.24134876 -0.24311669 0.2214865
000050 04 b1 af 3e 09 50 12 be a0 14 84 3e 4e c3 9f be
       0.3431474 -0.14288343 0.25796986 -0.31203693
000060 fe fd c9 be 65 7b b0 be 00 6b ca bc 7f fb cc be
       -0.39451593 -0.34469143 -0.024709225 -0.40035626
000070 ec e6 c9 bd 9a bb cb bd 3b 73 b3 3e 05 87 83 3d
       -0.09858498 -0.099478915 0.3504885 0.06422237
000080 6d aa 81 be 75 fa 25 bc 6f 28 17 3e aa 9f d2 bd
       -0.25325337 -0.010130514 0.14761518 -0.1028436
000090 e0 b4 b6 3e f6 3d b5 3e 88 31 05 3e 08 a8 92 3d
       0.35684872 0.35398835 0.13007176 0.07160956
0000a0 cd e9 90 bd 5a 33 b1 be 9d a5 96 3e aa 6a 75 3e
       -0.07075844 -0.3460949 0.29423228 0.2396647
0000b0 f3 5c 8c 3c e3 27 1d be 54 91 cc be d5 c4 bb be
       0.017134165 -0.15347247 -0.39954627 -0.36673608
0000c0 41 74 86 3e 93 ca cf be 67 c7 91 be 61 f7 fe bc
       0.2626057 -0.4058424 -0.28472444 -0.031123819
0000d0 6f 6c a7 3e 57 be 8f be d0 59 3c 3e 2e 74 2c be
       0.32699916 -0.28074905 0.18393636 -0.16841194
0000e0 23 87 30 be 69 0b 5b be 32 d1 f0 bd c4 21 01 be
       -0.1723905 -0.21391071 -0.11758651 -0.12610537
0000f0 b7 ae c6 3e ab 48 b2 be 0f 07 ce be b5 c1 06 3e
       0.38805172 -0.34821066 -0.4023976 0.13159831

l2.weight f4 [64, 64]
000000 5b 3b cc 3c 3c 6f e3 3d 3b 08 fc bd 00 d4 80 3d
       0.024930647 0.11105201 -0.12306257 0.06290436
000010 35 71 04 3d 27 7f 54 3d 2d 2f 04 3e 66 23 be 3d
       0.032334525 0.051879074 0.12908621 0.092840955
000020 e7 40 a9 3c 84 2f f8 3d 9e 19 e0 bd a8 a4 82 bc
       0.02066083 0.12118438 -0.10942386 -0.015947655
000030 4d b0 7b bd 90 73 05 3d 54 52 d1 bc 8f 2f f3 bd
       -0.06144743 0.032580912 -0.025551952 -0.118743055
000040 c6 a7 c7 3d 62 24 92 3d ec ff 8f bd 4d 65 9f bd
       0.09748797 0.07135846 -0.07031235 -0.077829935
000050 86 ad c6 3c af 9f 93 3c fa 5e c8 3c 98 3e ae bd
       0.024252664 0.018020479 0.02445935 -0.085080326
000060 5a e0 ca 3c bf 63 01 3b 8c 38 53 3c 9c ec 56 bd
       0.024765182 0.0019743291 0.0128919 -0.052471742
000070 f3 f3 d9 bc 2b 83 b2 bd 92 69 82 3b b8 3b 6d bd
       -0.026605582 -0.087164246 0.00397987 -0.05791828
000080 32 39 db bd e3 5e df bc 2a 94 29 bd 2e 98 cc bd
       -0.107042685 -0.027266925 -0.041401066 -0.099899635
000090 47 86 0e bd c9 c8 ab bd 97 6b d1 bd 8f 29 00 3e
       -0.034796026 -0.08387906 -0.10225599 0.12515853
0000a0 1c f2 83 3d 42 b2 d0 bd 13 7e d8 bd af f8 cb bd
       0.06442663 -0.1019025 -0.10570922 -0.09959542
0000b0 67 f7 0f 3d 98 e6 d8 bd 62 8d 91 3d a0 09 89 bc
       0.03514805 -0.10590857 0.07107045 -0.016728222
0000c0 4e 99 6b bd ec d4 4c bd fc 4f 11 3a 0f bb 8b bd
       -0.05751925 -0.050007746 0.00055432296 -0.06822788
0000d0 04 12 c8 3d 6f 69 8f bc d4 64 d1 bd b3 36 00 3d
       0.09769061 -0.01750633 -0.102243096 0.031302165
0000e0 dc ca 01 3d 1c 4a f2 bc 1c f6 e1 3d f0 4c a5 bd
       0.031687602 -0.029576354 0.1103327 -0.08071315
0000f0 58 e2 d8 bd 2e 1a 88 bd 94 a5 66 bd f4 b9 d4 bb
       -0.10590047 -0.066456184 -0.05631025 -0.006491894
000100 83 c1 cb 3c 16 02 e3 3d 02 a2 20 3c 3a 07 f9 3b
       0.024872547 0.11084382 0.009804251 0.0075997384
000110 23 04 26 3e 6e bb 54 bd 23 29 dc bd ff 6c 40 bd
       0.16212516 -0.05193656 -0.10750034 -0.046978947
000120 d5 56 8f bd a9 d0 2e 3c 19 cc 63 bc 19 4c b1 bd
       -0.06998984 0.010669866 -0.013903641 -0.086570926
000130 56 dc a7 bd f0 54 f3 bc 7d 9c f2 bd 52 b1 59 3d
       -0.081963226 -0.029703587 -0.11846254 0.05314762
000140 40 4a 20 3d 48 eb ec 3d f8 8c 36 3c aa ec 86 3d
       0.03913331 0.11568314 0.011142008 0.06588109
000150 2f fb a6 bd 3a ca 6b 3d 00 a8 da bd 00 1b 5f bc
       -0.08153378 0.057565905 -0.10676575 -0.013617277
000160 93 1f 70 3c ac a9 79 3d 42 1d b0 3d e8 ec c4 3d
       0.014655965 0.060952827 0.085993305 0.09615499
000170 bf 0d ad bd de c4 2e bd 65 e2 cb 3d b6 18 07 bd
       -0.084498875 -0.042668216 0.09955291 -0.03298255
000180 44 b9 03 be 04 5f 0d bd 8a 75 e7 3d f8 37 e4 3d
       -0.12863642 -0.034514442 0.11301716 0.11143488
000190 fd 5f a8 3a 93 ac d5 bc 97 0f 89 bd 98 4c f9 3d
       0.001284599 -0.026083266 -0.06692427 0.12172812
0001a0 8e e1 71 3d 12 94 b2 bd ad 6c d3 bd 67 91 ed bc
       0.059052996 -0.087196484 -0.10323463 -0.028999997
0001b0 e2 ce bb 3d 78 c6 99 bd 0e 78 c9 3d 80 f4 f1 ba
       0.09170319 -0.07508558 0.09837352 -0.0018459707
0001c0 da 87 08 bd 9a a9 be 3d 59 d1 f4 bd f1 91 0f 3e
       -0.033332683 0.09309693 -0.119539924 0.14020516
0001d0 eb c8 08 3e df 5c 87 3b cd 7b 67 bd e0 30 0f bc
       0.13357894 0.004130944 -0.05651455 -0.00873968
0001e0 b4 53 46 bd 29 9c 8e bc ac a3 62 bd 60 12 9d 3d
       -0.04841967 -0.017408447 -0.05533187 0.076695204
0001f0 96 84 63 3d 0c 15 dc bd c0 21 c8 3c d3 90 2d 3c
       0.055546366 -0.10746202 0.024430156 0.010593611
000200 0d 6e 97 bd 9f 7b 14 bd 10 39 c1 3c c2 c2 e4 3d
       -0.073940374 -0.036250707 0.02358678 0.111699596
000210 fb f8 17 3c 2f b4 45 bd 4e 58 d7 3d fb a4 c3 bd
       0.00927567 -0.04826754 0.1051489 -0.09552952
000220 60 23 5f 3c a0 61 75 bc e2 17 b4 3d 3b e4 5d 3c
       0.013619274 -0.014976889 0.08793618 0.013543184
000230 76 82 91 bc 1a 8a fa 3d 35 84 2e 3d 50 66 1c 3d
       -0.017762404 0.12233372 0.04260655 0.03818351
000240 d8 01 cf bd 80 fc 2a bc 80 66 57 bc aa 0c a1 3d
       -0.101077735 -0.010436177 -0.0131469965 0.078637436
000250 c9 13 82 bc f2 69 a1 bd 0e 47 3e bd c4 11 dd bd
       -0.015878575 -0.078815356 -0.04645448 -0.10794404
000260 b2 cc a3 bd 7a a2 46 bd 8a 2b 31 bd 18 70 5f 3d
       -0.07998027 -0.048494793 -0.043254413 0.05455026
000270 7c 55 08 3e 00 72 b9 bb a6 9f dd bd 26 60 9c 3d
       0.1331386 -0.005659342 -0.10821466 0.07635526
000280 c8 ae 75 3d c2 4e f9 3d 37 42 e2 bb d1 4a b3 bd
       0.059981138 0.12173225 -0.006904866 -0.087545045
000290 70 fd e0 bc 55 e0 79 3d 53 ec 5b 3d 75 91 58 3d
       -0.027464598 0.061004955 0.053692173 0.052873094
0002a0 61 96 e0 3d a8 25 d1 3c 97 a0 bb bc 0f 09 c4 bd
       0.109661825 0.025530651 -0.022903724 -0.0957204
0002b0 52 05 0a bd 38 87 db 3d 18 51 4d bd c4 67 17 3d
       -0.03369648 0.1071915 -0.050126165 0.036964193
0002c0 61 f5 81 bd 80 22 df 3a 92 fb fd 3d 10 1c 60 3d
       -0.063456304 0.0017023832 0.12401499 0.054714262
0002d0 d7 2a c4 bd 86 a6 d0 3d 9a ff 5e bb 3b 01 01 bd
       -0.095784836 0.10188012 -0.0034026862 -0.031495314
0002e0 1c 13 ca 3d 22 e3 08 bc ac 23 50 bd 80 bb 8b 3b
       0.09866926 -0.008354934 -0.05081527 0.004264295
0002f0 c0 ca 82 3d f6 28 e0 bd a8 ea fb bc cf 9a 64 bd
       0.06386328 -0.10945313 -0.030751541 -0.0558117
000300 3b 87 be 3d 99 53 4c b9 95 b8 cd 3d 06 c1 eb 3b
       0.09303137 -0.00019486099 0.10044972 0.007194641
000310 61 fa b2 bc 8e b4 e5 bd 8b f0 83 3d 71 82 c7 bd
       -0.021847906 -0.11216079 0.06442364 -0.097416766
000320 a3 56 a0 3d 47 96 eb 3d 73 6e ad bd f0 68 b4 3d
       0.07829025 0.115032725 -0.08468332 0.08809078
000330 8e 5f dc bd 40 a7 33 3d f4 42 4e 3d f0 2e 85 3c
       -0.10760413 0.043860674 0.05035682 0.016257733
000340 ee 6a fb bd 84 88 c7 3d 73 05 f7 bd 71 fe 47 bd
       -0.122762546 0.09742835 -0.12061586 -0.04882664
000350 89 7a eb bd 8a 67 e5 3b b2 96 22 3d 74 1a ef 3d
       -0.11497981 0.007000868 0.039694495 0.116749674
000360 56 dd c5 bd d0 fe b7 3d d7 f7 35 3d 90 fd 2b 3d
       -0.09661357 0.089841485 0.04442581 0.041989863
000370 fc 1b ed 3c f9 6e a7 bd 1b b9 46 ba b0 53 7b 3d
       0.028944008 -0.08175463 -0.00075806835 0.061359107
000380 87 9a 9e 3d 45 1b a7 3d d7 56 b0 bd cc 54 d7 bd
       0.077443175 0.08159498 -0.086103134 -0.105142206
000390 95 7f 1d bd be b9 d6 bd 88 cb d0 3d 68 2c d3 bb
       -0.03845175 -0.10484646 0.101950705 -0.0064445026
0003a0 64 42 fb 3d 50 d9 62 3c df 12 d6 3d ea 90 82 bd
       0.122685224 0.013845757 0.10452818 -0.063752964
0003b0 1c c1 ac 3d f4 1d 20 3d e0 9a f2 bb 6e a4 d3 3d
       0.0843527 0.039091066 -0.0074037164 0.10334097
0003c0 b7 35 d1 bc 2c 3e f3 3d 31 9c a6 3d 48 ca 26 3d
       -0.025538309 0.11877093 0.0813526 0.040720254
0003d0 12 1e 6c bd 54 60 a4 bd c2 7c 0c 3d e5 aa ac 3d
       -0.057645865 -0.08026186 0.034298666 0.08431033
0003e0 40 5c 8a bc 71 18 29 bd e8 a4 ad 3c 18 65 bb 3d
       -0.016889691 -0.041283075 0.021196797 0.091501415
0003f0 86 99 b3 3d ae 95 f7 bd 78 f3 f1 bd f0 22 88 3d
       0.08769517 -0.12089096 -0.11814016 0.06647289

l2.bias f4 [64]
000000 4e 95 88 3d c6 72 d2 3c f6 e0 06 3e 83 32 02 3e
       0.066691026 0.025689494 0.13171753 0.12714581
000010 71 79 d1 bd 48 d0 f7 3c 7a 7a c3 bd 14 c4 d9 3d
       -0.10228241 0.030250683 -0.09544845 0.10633102
000020 84 cc 20 3d 60 e3 1a 3d 8d 43 b2 bc 62 c0 c5 bc
       0.03925754 0.037814498 -0.021760726 -0.024139587
000030 ce 44 8d 3d 63 82 34 3c 4d 4c f2 bd ce f3 d4 bc
       0.06897889 0.011017415 -0.118309595 -0.025995161
000040 59 72 b3 bc 3d d8 88 3d d8 7d e5 3d 50 52 94 bd
       -0.021905111 0.06681869 0.112056434 -0.07242262
000050 cb c4 73 3d 5e 66 72 bc 38 8a a1 bd ea 62 2d 3d
       0.05951385 -0.014794914 -0.07887691 0.04233066
000060 58 30 d6 3d 9a 96 e7 bd 6e f8 a5 bb e4 37 b9 3d
       0.104584396 -0.11308022 -0.0050650155 0.090438634
000070 1c 9f 01 3d 5c 62 84 bd 1e a8 6a 3b 55 75 87 bd
       0.03164588 -0.06464073 0.0035805772 -0.06614176
000080 29 55 d1 3d 0e 88 96 bc 06 f0 2e bd d8 e0 1c 3d
       0.10221321 -0.018375423 -0.042709373 0.038300365
000090 45 22 bf bd 01 a9 af 3d 4f 68 86 3d e2 7d 5c 3d
       -0.09332708 0.08577157 0.06562864 0.05383099
0000a0 0d 47 e8 3d bc db bd bd 57 bf df 3d 3c ef a4 bd
       0.11341677 -0.09270427 0.10925167 -0.08053443
0000b0 27 3e c9 bd 19 ff 2f 3a 0f 88 f2 3c 1f b8 4a bd
       -0.09826308 0.0006713733 0.029605893 -0.049491998
0000c0 ac 78 6a bd 8b 18 3e 3d 13 f4 99 bd bc f1 12 bd
       -0.057243988 0.046410125 -0.075172566 -0.035875067
0000d0 f7 6d 86 bd e0 c2 fd 3b 85 af ca bc 5c aa b3 bd
       -0.06563943 0.007744178 -0.024741897 -0.08772728
0000e0 86 5f e9 bd 68 a9 ab 3b d7 be 3c bd f2 6f f3 3d
       -0.11395173 0.0052387007 -0.046080437 0.11886586
0000f0 c0 a9 38 bd b1 02 ca 3d 0c 5c da bd d5 0b 07 be
       -0.04508376 0.098637946 -0.10662088 -0.13188107

l3.weight f4 [1, 64]
000000 4c ea eb 3d 9e e3 2e 3c 6d c0 55 3d 03 82 25 3c
       0.11519298 0.010674385 0.052185465 0.010101798
000010 8e fe e4 3d 38 32 ae bd 40 3f fc 3b 44 f4 02 be
       0.11181365 -0.08505672 0.0076979697 -0.12788492
000020 3a c5 e3 bd c1 01 42 bd 03 29 18 be b5 30 1c ba
       -0.11121602 -0.047364954 -0.14859395 -0.00059581856
000030 96 6c c5 3d 38 d7 f9 bd db 50 72 bd fd 26 c2 bd
       0.09639852 -0.12199253 -0.05915914 -0.09480093
000040 b6 2c 47 bd 14 d0 cf 3d d0 90 8d 3c 1c 06 84 bd
       -0.048626624 0.1014711 0.017280966 -0.06446478
000050 74 03 9d 3d 9f fd b3 bd b6 3f 92 bd ea b4 83 bd
       0.07666674 -0.08788609 -0.07141058 -0.06430991
000060 75 ed e9 3b b7 d3 0c bd aa 7f f3 bd 53 85 b1 3c
       0.007138903 -0.034381595 -0.11889584 0.02167002
000070 b5 d5 85 bb 0d d1 cf bd 43 1f f7 3d 02 42 bd bd
       -0.0040843138 -0.10147295 0.120665096 -0.092411056
000080 cb d2 73 bd 47 ea d3 3d 7b 4d cf bd 7c 41 6b bc
       -0.0595272 0.10347419 -0.101222 -0.014358874
000090 85 a1 1f 3d a5 eb 75 3d 08 b5 9e bd 28 06 96 bc
       0.038972396 0.06003918 -0.07749373 -0.018313482
0000a0 60 90 71 bd 18 b1 95 3d 55 93 3c 3b 16 c4 26 3d
       -0.058975577 0.073091686 0.002877434 0.040714346
0000b0 c1 b8 56 3d e4 8f fc bd 7f 81 51 bd 7e 20 21 bb
       0.05242229 -0.123321325 -0.051148888 -0.0024586017
0000c0 92 b1 cf 3d 60 0a 02 bc 16 20 95 bd e8 d2 80 bd
       0.10141291 -0.007937044 -0.072815105 -0.06290227
0000d0 7a 4b 89 bd 4d e6 52 3d 90 29 76 3b 77 7a bd 3d
       -0.06703849 0.051489163 0.0037561394 0.09251874
0000e0 3c 0a cd 3d a4 04 84 3b b6 a8 85 bc 81 73 cf 3d
       0.10011718 0.0040288735 -0.0163158 0.101294525
0000f0 22 c2 c8 3d 99 f6 df 3d 80 0b 0f 3d c8 a1 32 bd
       0.09802653 0.10935707 0.034923077 -0.043611318

exp_avg f4 [64, 6]
000000 13 71 e1 3f 4c 50 10 b7 11 11 45 3f a6 e3 7c b7
       1.7612633 -8.601764e-06 0.76979166 -1.5073374e-05
000010 4d 9d e4 3e 0a b9 f1 b7 13 80 fd 3e 00 00 00 00
       0.4465126 -2.8815604e-05 0.49511775 0.0
000020 00 00 00 00 a1 b9 1e 36 60 f6 64 be 00 00 00 00
       0.0 2.3651885e-06 -0.2235961 0.0
000030 b2 0d d2 b6 00 00 00 00 00 00 00 00 00 00 00 00
       -6.260082e-06 0.0 0.0 0.0
000040 00 00 00 00 35 7c d0 b7 08 68 5a b7 08 ff 99 b6
       0.0 -2.485337e-05 -1.3018034e-05 -4.589445e-06
000050 00 00 00 00 3d f9 55 b6 00 00 00 00 df c5 06 b8
       0.0 -3.188455e-06 0.0 -3.213237e-05
000060 22 85 35 c0 a6 f1 89 36 3c 35 84 bf 00 00 00 00
       -2.8362508 4.1110497e-06 -1.0328746 0.0
000070 00 00 00 00 00 00 00 00 62 04 8b 3c 00 00 00 00
       0.0 0.0 0.016969863 0.0
000080 00 00 00 00 92 9b 0c 36 62 72 e4 3d 00 00 00 00
       0.0 2.095218e-06 0.11154629 0.0
000090 c9 c8 31 bf 8b f2 18 37 3b 8b bf be 87 ee 32 37
       -0.69447 9.116377e-06 -0.37410912 1.0665163e-05
0000a0 8c 1f cb be 00 00 00 00 49 ae 93 bf f5 ce 41 37
       -0.39672506 0.0 -1.1537563 1.1551882e-05
0000b0 00 00 00 00 4b 51 8c 37 00 00 00 00 18 84 27 38
       0.0 1.6727156e-05 0.0 3.9938925e-05
0000c0 4b 59 83 b7 00 00 00 00 00 00 00 00 fa 8f 19 b7
       -1.5657997e-05 0.0 0.0 -9.153033e-06
0000d0 00 00 00 00 89 fb 20 b8 1f 10 63 be 92 76 4c 36
       0.0 -3.8381233e-05 -0.22174118 3.0467386e-06
0000e0 27 66 be 3d 00 00 00 00 ec fb c9 be 13 c4 fd 37
       0.09296828 0.0 -0.39450014 3.0251254e-05
0000f0 0d ed 88 bf 00 00 00 00 54 0b d6 be 00 00 00 00
       -1.0697342 0.0 -0.41805518 0.0
000100 00 00 00 00 00 00 00 00 05 3d 66 bd 00 00 00 00
       0.0 0.0 -0.056210537 0.0
000110 00 00 00 00 ce 6a 37 b7 00 00 00 00 00 00 00 00
       0.0 -1.0932517e-05 0.0 0.0
000120 a7 f3 9c 3f 50 dd c1 b6 80 10 06 3f 00 00 00 00
       1.2261857 -5.7776124e-06 0.52368927 0.0
000130 64 5a a0 37 1c 51 2a b8 00 00 00 00 00 00 00 00
       1.9115578e-05 -4.0606697e-05 0.0 0.0
000140 00 00 00 00 00 00 00 00 00 00 00 00 00 00 00 00
       0.0 0.0 0.0 0.0
000150 14 6d 60 3f c7 45 c6 35 00 00 00 00 7a 8b 88 36
       0.8766644 1.4772457e-06 0.0 4.069353e-06
000160 4e a7 e6 39 00 00 00 00 47 28 4f 3b 00 00 00 00
       0.0004399367 0.0 0.00316097 0.0
000170 00 00 00 00 68 2d fe 36 d3 bd 53 3d e6 56 a5 b7
       0.0 7.575076e-06 0.051694702 -1.9709998e-05
000180 00 00 00 00 00 00 00 00 00 00 00 00 00 00 00 00
       0.0 0.0 0.0 0.0
000190 00 00 00 00 00 00 00 00 00 00 00 00 00 00 00 00
       0.0 0.0 0.0 0.0
0001a0 00 00 00 00 00 00 00 00 00 00 00 00 00 00 00 00
       0.0 0.0 0.0 0.0
0001b0 0f 9c 95 3e 00 00 00 00 10 ee cd 3e 00 00 00 00
       0.29220626 0.0 0.4022069 0.0
0001c0 00 00 00 00 00 00 00 00 66 45 6c 3f f2 54 51 b6
       0.0 0.0 0.92293394 -3.1192872e-06
0001d0 cd 4c 8a 3e 08 b9 05 36 72 28 a9 3e 01 5b 40 b7
       0.2701172 1.9926247e-06 0.3303867 -1.146528e-05
0001e0 c8 73 f5 bd c8 08 76 b5 a4 da 3c 3d 2b f1 b3 35
       -0.11984974 -9.165492e-07 0.04610695 1.3406728e-06
0001f0 d1 ac 44 3d 44 fa e2 b6 40 ce db be 00 00 00 00
       0.048016373 -6.7644596e-06 -0.42930794 0.0
000200 67 ef 36 bf 2c 46 17 37 00 00 00 00 00 00 00 00
       -0.7145905 9.0166395e-06 0.0 0.0
000210 8d 76 47 be 71 2b 4f 35 6e de 89 bd af 69 f1 36
       -0.19478817 7.7176725e-07 -0.06731878 7.194663e-06
000220 00 00 00 00 b4 39 27 37 00 00 00 00 00 00 00 00
       0.0 9.967411e-06 0.0 0.0
000230 00 00 00 00 00 00 00 00 00 00 00 00 00 00 00 00
       0.0 0.0 0.0 0.0
000240 f8 fb 2e 34 00 00 00 00 00 00 00 00 00 00 00 00
       1.6296678e-07 0.0 0.0 0.0
000250 00 00 00 00 76 dc 4d 35 b0 a5 be bd 00 00 00 00
       0.0 7.6689264e-07 -0.09308946 0.0
000260 00 00 00 00 00 00 00 00 b5 8b 67 be 00 00 00 00
       0.0 0.0 -0.22611888 0.0
000270 5f 4c 82 bd 38 5a 19 b6 27 70 cd bd 00 00 00 00
       -0.06362223 -2.285129e-06 -0.10031157 0.0
000280 8e 16 2e 3c 17 1a aa b6 00 00 00 00 00 00 00 00
       0.010625495 -5.069432e-06 0.0 0.0
000290 00 00 00 00 00 00 00 00 00 00 00 00 00 00 00 00
       0.0 0.0 0.0 0.0
0002a0 f2 d4 24 3f 24 5d b5 b6 00 00 00 00 bc 7c 1f b7
       0.6438743 -5.4050633e-06 0.0 -9.5061805e-06
0002b0 b6 41 6b 39 00 00 00 00 1e e7 16 bf 00 00 00 00
       0.00022435826 0.0 -0.58946407 0.0
0002c0 89 e5 79 bf 00 00 00 00 00 00 00 00 d6 be 22 38
       -0.9761587 0.0 0.0 3.880154e-05
0002d0 71 19 95 3f 0b ff 53 b6 d0 fc b5 3e e1 7c a0 b6
       1.1648389 -3.1589905e-06 0.35544443 -4.7829094e-06
0002e0 e5 fb ed 3e c5 bd b3 b7 e3 2d 46 bc 3d 92 4c 36
       0.46481243 -2.1426831e-05 -0.012095901 3.048349e-06
0002f0 b9 20 b8 3d 00 00 00 00 d8 4e 57 3e 4e fd 73 36
       0.08990616 0.0 0.2102617 3.6357264e-06
000300 cd dc da b6 00 00 00 00 00 00 00 00 c4 6b 2c b7
       -6.522611e-06 0.0 0.0 -1.027709e-05
000310 00 00 00 00 00 00 00 00 84 b6 b1 3e 71 07 a3 b6
       0.0 0.0 0.3470956 -4.858645e-06
000320 ce 88 83 3e a1 f6 82 b7 00 00 00 00 29 5b 36 b7
       0.2569031 -1.5612053e-05 0.0 -1.086927e-05
000330 19 33 45 3f b9 3e 7a b6 00 00 00 00 c7 a0 d4 b5
       0.77031094 -3.7289412e-06 0.0 -1.5842023e-06
000340 8e f6 cf 3e 00 00 00 00 b4 79 b2 be 96 58 95 b6
       0.40617794 0.0 -0.34858477 -4.450859e-06
000350 9f 8e ce be c3 c9 2f 36 00 00 00 00 00 00 00 00
       -0.40343186 2.6194473e-06 0.0 0.0
000360 91 31 52 be 00 00 00 00 00 00 00 00 cb 5a 6c 35
       -0.2052672 0.0 0.0 8.804897e-07
000370 40 d2 bc 3d a2 25 39 36 c6 28 9d be 05 06 a2 b6
       0.092197895 2.7589053e-06 -0.3069517 -4.828677e-06
000380 fc 10 87 bd 19 9d 18 b7 00 00 00 00 67 49 5c b7
       -0.065950364 -9.096483e-06 0.0 -1.3130112e-05
000390 ac a3 f8 bd 59 a5 29 36 00 00 00 00 68 fb 99 34
       -0.12140593 2.5279207e-06 0.0 2.8681393e-07
0003a0 22 a9 14 3c c9 de 20 b7 bb d0 73 3f 00 00 00 00
       0.0090735275 -9.588614e-06 0.9524037 0.0
0003b0 d7 e4 f2 3e 2d be 8d b6 98 0f c4 bc 00 00 00 00
       0.47440216 -4.224267e-06 -0.023933217 0.0
0003c0 46 02 61 3d 00 00 00 00 97 e8 17 3a 00 00 00 00
       0.05493381 0.0 0.00057948515 0.0
0003d0 ff 2a 6a 3e 00 00 00 00 00 00 00 00 00 00 00 00
       0.22867964 0.0 0.0 0.0
0003e0 00 00 00 00 00 00 00 00 00 00 00 00 00 00 00 00
       0.0 0.0 0.0 0.0
0003f0 0c b4 7c 3f 00 00 00 00 a8 ff 92 3e 98 d2 bd b7
       0.9871223 0.0 0.28710675 -2.2628621e-05

exp_avg_sq f4 [64, 6]
000000 e5 ee 1d 41 ba b1 5d 38 2c d2 60 40 61 0c d4 38
       9.870824 5.2856027e-05 3.5128279 0.000101112535
000010 3c 64 46 40 54 da d0 38 49 5b a6 3e 00 00 00 00
       3.0998678 9.95888e-05 0.3249152 0.0
000020 00 00 00 00 26 7b 09 36 91 8a 34 40 00 00 00 00
       0.0 2.0486273e-06 2.8209574 0.0
000030 88 95 ab 36 00 00 00 00 00 00 00 00 00 00 00 00
       5.113605e-06 0.0 0.0 0.0
000040 00 00 00 00 da a1 a0 38 57 90 b0 37 2a 9f 7c 37
       0.0 7.659542e-05 2.1048048e-05 1.5057429e-05
000050 00 00 00 00 40 9b 71 36 00 00 00 00 01 6e 02 39
       0.0 3.6002166e-06 0.0 0.00012438746
000060 f4 6c 23 40 84 95 4b 37 b8 cd e0 40 00 00 00 00
       2.553525 1.2134555e-05 7.025112 0.0
000070 00 00 00 00 00 00 00 00 a6 48 08 3b 00 00 00 00
       0.0 0.0 0.0020795255 0.0
000080 00 00 00 00 8e d6 e3 35 b1 90 b7 3d 00 00 00 00
       0.0 1.6975262e-06 0.089631446 0.0
000090 e9 47 0f 40 f7 e1 78 38 f4 e4 67 3f 49 3c 0a 38
       2.238764 5.9338254e-05 0.9058373 3.295791e-05
0000a0 4f 46 e4 40 00 00 00 00 79 38 1e 41 71 cd c7 38
       7.1335826 0.0 9.888787 9.527326e-05
0000b0 00 00 00 00 93 86 f0 38 00 00 00 00 e8 57 54 39
       0.0 0.00011469158 0.0 0.00020250643
0000c0 f6 3f 2a 38 00 00 00 00 00 00 00 00 36 56 c7 37
       4.0590727e-05 0.0 0.0 2.3762794e-05
0000d0 00 00 00 00 00 1b 3b 39 95 ac 92 3e 91 57 e0 36
       0.0 0.00017843768 0.28647295 6.6859143e-06
0000e0 d6 be 82 3c 00 00 00 00 d9 bc 8e 40 bb 6b f9 38
       0.015960138 0.0 4.4605527 0.000118933116
0000f0 a1 62 ac 3f 00 00 00 00 bf 38 88 3f 00 00 00 00
       1.3467599 0.0 1.0642318 0.0
000100 00 00 00 00 00 00 00 00 59 ee 96 3d 00 00 00 00
       0.0 0.0 0.0736968 0.0
000110 00 00 00 00 37 d2 0e 38 00 00 00 00 00 00 00 00
       0.0 3.4051216e-05 0.0 0.0
000120 8a ad 05 41 c0 de c7 37 b1 fa b5 3f 00 00 00 00
       8.354868 2.3826375e-05 1.421713 0.0
000130 ac 4d 8a 37 b2 12 60 39 00 00 00 00 00 00 00 00
       1.648705e-05 0.00021369269 0.0 0.0
000140 00 00 00 00 00 00 00 00 00 00 00 00 00 00 00 00
       0.0 0.0 0.0 0.0
000150 13 50 47 3e 9c 93 d9 35 00 00 00 00 26 26 50 37
       0.1946414 1.621072e-06 0.0 1.2406648e-05
000160 5f ce 1e 3f 00 00 00 00 83 09 68 3b 00 00 00 00
       0.6203365 0.0 0.003540606 0.0
000170 00 00 00 00 68 0f bf 38 c9 b0 10 3e 40 36 5c 38
       0.0 9.110459e-05 0.14129938 5.250261e-05
000180 00 00 00 00 00 00 00 00 00 00 00 00 00 00 00 00
       0.0 0.0 0.0 0.0
000190 00 00 00 00 00 00 00 00 00 00 00 00 00 00 00 00
       0.0 0.0 0.0 0.0
0001a0 00 00 00 00 00 00 00 00 00 00 00 00 00 00 00 00
       0.0 0.0 0.0 0.0
0001b0 a2 53 13 3f 00 00 00 00 03 5e 6e 3f 00 00 00 00
       0.5754949 0.0 0.931122 0.0
0001c0 00 00 00 00 00 00 00 00 a5 28 c7 3f 62 9c ea 36
       0.0 0.0 1.5559279 6.991949e-06
0001d0 72 81 2c 3f 48 bf 43 39 ac 21 0d 40 00 50 8b 37
       0.6738502 0.00018667907 2.2051802 1.6607344e-05
0001e0 17 d4 a6 3f a8 03 26 35 e8 cc 24 3d 1f aa 5f 35
       1.3033475 6.184514e-07 0.040234476 8.332153e-07
0001f0 74 82 58 3e 4d 22 d4 36 3b 0d 9c 40 00 00 00 00
       0.21143514 6.3220855e-06 4.876615 0.0
000200 73 0c 7b 40 70 6b d9 37 00 00 00 00 00 00 00 00
       3.9226348 2.5918445e-05 0.0 0.0
000210 36 82 20 40 7f b4 e9 34 d2 19 79 3d a4 c7 9f 38
       2.5079474 4.353096e-07 0.06081564 7.618897e-05
000220 00 00 00 00 7b c7 57 37 00 00 00 00 00 00 00 00
       0.0 1.2861444e-05 0.0 0.0
000230 00 00 00 00 00 00 00 00 00 00 00 00 00 00 00 00
       0.0 0.0 0.0 0.0
000240 de bf fa 32 00 00 00 00 00 00 00 00 00 00 00 00
       2.9191082e-08 0.0 0.0 0.0
000250 00 00 00 00 0c 9d 09 35 08 84 64 3d 00 00 00 00
       0.0 5.126501e-07 0.055789977 0.0
000260 00 00 00 00 00 00 00 00 14 f2 2e 40 00 00 00 00
       0.0 0.0 2.7335253 0.0
000270 2a 49 3e 3d 5f d1 7b 36 43 60 08 3e 00 00 00 00
       0.046456493 3.7523785e-06 0.13317971 0.0
000280 dc ed 93 3d 8d f6 5b 36 00 00 00 00 00 00 00 00
       0.072231025 3.2777054e-06 0.0 0.0
000290 00 00 00 00 00 00 00 00 00 00 00 00 00 00 00 00
       0.0 0.0 0.0 0.0
0002a0 3a 4d 9d 3f dd 2b af 37 00 00 00 00 22 28 a3 38
       1.2289193 2.0882051e-05 0.0 7.779921e-05
0002b0 46 40 8d 3d 00 00 00 00 01 11 17 40 00 00 00 00
       0.06897025 0.0 2.3604128 0.0
0002c0 33 aa de 40 00 00 00 00 00 00 00 00 fd 00 44 39
       6.9582763 0.0 0.0 0.00018692385
0002d0 67 18 ed 3f e4 1d f0 36 c0 fe 39 3f 12 de e5 36
       1.8523072 7.156037e-06 0.7265434 6.850584e-06
0002e0 6a 84 2a 40 58 6e 5d 38 e0 d0 d6 3e 10 65 e5 36
       2.664332 5.279327e-05 0.41956234 6.836497e-06
0002f0 fc 45 23 3e 00 00 00 00 b3 d8 94 3e 99 c8 15 37
       0.15944666 0.0 0.29071578 8.927797e-06
000300 cf 8a 50 37 00 00 00 00 00 00 00 00 ee 77 01 38
       1.2430085e-05 0.0 0.0 3.086769e-05
000310 00 00 00 00 00 00 00 00 f3 49 ac 3f ef 4f 8d 37
       0.0 0.0 1.3460068 1.6845732e-05
000320 74 eb 31 3f 9b a0 2f 39 00 00 00 00 cc 07 69 37
       0.694999 0.00016749131 0.0 1.3889698e-05
000330 ac 5f 91 3f 01 2d 27 37 00 00 00 00 de a6 45 35
       1.1357322 9.964454e-06 0.0 7.363104e-07
000340 04 19 13 40 00 00 00 00 b7 7f 8e 3f 6f 92 6d 37
       2.2984018 0.0 1.1132725 1.4160395e-05
000350 5c fb b2 3f 51 6a c8 37 00 00 00 00 00 00 00 00
       1.3982959 2.3891365e-05 0.0 0.0
000360 49 ba ac 3d 00 00 00 00 00 00 00 00 14 c8 31 37
       0.084339686 0.0 0.0 1.0596606e-05
000370 59 e6 53 3e b0 11 59 35 e3 57 a0 3f 5f 51 8d 37
       0.2069334 8.086454e-07 1.2526821 1.6846401e-05
000380 d9 49 cb 3c 22 bb db 38 00 00 00 00 d3 1e cb 37
       0.024815487 0.0001047759 0.0 2.421384e-05
000390 e0 68 72 3f f6 69 9f 36 00 00 00 00 56 e0 0e 38
       0.94691277 4.7509047e-06 0.0 3.4064367e-05
0003a0 cf 16 c8 3e ca 55 37 37 ae 83 9d 3f 00 00 00 00
       0.39079902 1.0927624e-05 1.230581 0.0
0003b0 7e 6f b7 3f 42 bf c2 36 03 de 5e 3d 00 00 00 00
       1.43309 5.803916e-06 0.054410946 0.0
0003c0 07 cb a7 3b 00 00 00 00 cb fd 1f 3b 00 00 00 00
       0.0051206383 0.0 0.0024412747 0.0
0003d0 b5 30 5f 3e 00 00 00 00 00 00 00 00 00 00 00 00
       0.21795924 0.0 0.0 0.0
0003e0 00 00 00 00 00 00 00 00 00 00 00 00 00 00 00 00
       0.0 0.0 0.0 0.0
0003f0 bf 9c 52 41 00 00 00 00 1a d5 a7 3e e4 bf d1 39
       13.163268 0.0 0.3277977 0.00040006556

exp_avg f4 [64]
000000 ea 4a 18 bf ac af 27 40 0c 7e d0 b7 f0 63 27 b8
       -0.5948931 2.6200972 -2.4854227e-05 -3.9908977e-05
000010 1e da 80 c0 d6 69 e4 3d 2c d9 3d 3f 53 b7 1a 40
       -4.0266256 0.11152999 0.74159503 2.4174392
000020 97 5e 47 b8 d6 f1 80 3f f9 82 95 3b dc c8 9e bd
       -4.753339e-05 1.0073802 0.0045627323 -0.07753155
000030 6d 1a e2 3f 00 00 00 00 23 23 90 40 7d ba 53 3d
       1.7664315 0.0 4.504289 0.05169152
000040 00 00 00 00 00 00 00 00 fd d7 ed 3e 5d 67 68 bf
       0.0 0.0 0.46453848 -0.9078272
000050 9a 6e 1c 3f 84 60 36 bf 66 1d 5b 3f 00 00 00 00
       0.61106265 -0.7124102 0.85591733 0.0
000060 87 e7 4d 35 f0 5f 67 be b7 b3 b7 bd 00 00 00 00
       7.670537e-07 -0.22595191 -0.08969825 0.0
000070 1b 40 7c 3f 6a e1 79 bf 2f 18 2b bf 60 63 bf be
       0.9853532 -0.9760958 -0.66833776 -0.37380505
000080 ca 62 2c b7 aa 1b c5 3e fd 89 73 bf e6 16 09 bf
       -1.0275e-05 0.38497669 -0.9513243 -0.53550565
000090 99 a1 48 3e fa b5 ae be 7d ea 85 bf ec e7 e5 3e
       0.19592895 -0.34123212 -1.0462185 0.44903505
0000a0 f2 d2 6a 3e 00 00 00 00 d9 6b 5e bf 33 91 88 bf
       0.22932032 0.0 -0.8688331 -1.0669311
0000b0 5f 6d b1 3d 00 00 00 00 00 00 00 00 00 00 00 00
       0.08663439 0.0 0.0 0.0
0000c0 dc 49 85 bf 00 00 00 00 cc 44 f1 36 8c ea c7 bf
       -1.0413165 0.0 7.1903687e-06 -1.5618453
0000d0 0b 18 6d be 31 a0 f1 34 d1 7d 06 bf 06 ef 1b 3d
       -0.23153703 4.5006303e-07 -0.5253573 0.038069747
0000e0 00 00 00 00 2c 52 4e be 00 00 00 00 0e df 17 be
       0.0 -0.20148534 0.0 -0.14831182
0000f0 8b e4 0d bf 00 00 00 00 00 00 00 00 20 df 82 3e
       -0.55426854 0.0 0.0 0.25560856

exp_avg_sq f4 [64]
000000 79 c7 80 40 b6 41 63 40 8c aa a0 38 a5 77 37 39
       4.0243497 3.5508857 7.661161e-05 0.00017496811
000010 f7 9c e9 40 18 8f b7 3d 33 36 73 40 51 13 a7 41
       7.3004107 0.0896284 3.800183 20.884432
000020 95 98 a2 39 b4 e0 80 40 35 05 92 40 4f 4e 18 3e
       0.0003101273 4.0274296 4.5631356 0.14873622
000030 77 6a 4a 41 00 00 00 00 0a 77 0e 41 c9 9d 10 3e
       12.650992 0.0 8.904062 0.1412269
000040 00 00 00 00 00 00 00 00 21 2f 9e 3f 15 c3 00 40
       0.0 0.0 1.2358133 2.0119069
000050 49 36 66 40 e6 00 02 41 74 82 7b 40 00 00 00 00
       3.5970633 8.125219 3.9298372 0.0
000060 af 9d 09 35 66 f8 2e 40 3e 49 4c 3e 00 00 00 00
       5.1265937e-07 2.733911 0.19949815 0.0
000070 bd 44 77 40 60 87 de 40 99 fd 2f 40 17 8d 82 3f
       3.8635705 6.9540253 2.7498534 1.0199307
000080 87 6c 01 38 09 ab bd 40 bc 05 5f 40 e8 89 05 40
       3.085707e-05 5.9271283 3.484725 2.0865421
000090 3e 35 a6 3f 7a 16 da 3f ff 5b 77 40 bb 9b a9 3f
       1.2984998 1.7038109 3.86499 1.325065
0000a0 30 69 63 3e 00 00 00 00 eb 7c 53 40 a0 51 5f 40
       0.22208095 0.0 3.3044994 3.489357
0000b0 f0 dd 42 3f 00 00 00 00 00 00 00 00 00 00 00 00
       0.761199 0.0 0.0 0.0
0000c0 86 a7 7e 40 00 00 00 00 8e 09 42 38 5a bf 84 41
       3.9789748 0.0 4.6262103e-05 16.593433
0000d0 95 34 83 41 0d 19 a5 34 63 de 25 3f 82 70 bb 3e
       16.400675 3.0751872e-07 0.6479246 0.36609274
0000e0 00 00 00 00 b7 10 20 40 00 00 00 00 ce f5 c7 3e
       0.0 2.5010202 0.0 0.39054722
0000f0 a8 3b d0 3f 00 00 00 00 00 00 00 00 64 b0 d5 3f
       1.6268206 0.0 0.0 1.6694455

exp_avg f4 [64, 64]
000000 10 b5 78 3f 13 e8 78 bd eb b6 0f 37 38 15 3b 37
       0.9715128 -0.0607682 8.566053e-06 1.1151009e-05
000010 62 15 22 36 35 84 a9 bd ee a7 d9 3f b9 53 10 40
       2.4152328e-06 -0.082771696 1.7004373 2.25511
000020 ac 06 76 36 82 f0 c5 3f 95 69 a8 3f 0f fe 24 ba
       3.666074e-06 1.5464022 1.3157221 -0.0006293961
000030 75 7f 70 b8 00 00 00 00 3e 80 04 be cc bc 64 bd
       -5.7339163e-05 0.0 -0.12939546 -0.055844113
000040 00 00 00 00 00 00 00 00 00 00 00 00 c5 a9 e4 3f
       0.0 0.0 0.0 1.786431
000050 4a 6a 14 40 eb 31 32 34 3f e5 fc 3f 00 00 00 00
       2.3189874 1.6595702e-07 1.975746 0.0
000060 db f1 dc 34 00 7a d8 bc b1 26 90 be 00 00 00 00
       4.1154166e-07 -0.026425362 -0.2815452 0.0
000070 30 ce 40 be 8e 29 b6 36 43 dd 0d 40 80 c2 d8 3e
       -0.18828654 5.4288603e-06 2.2166297 0.42335892
000080 d2 1f c8 34 49 63 11 bc 96 8b 66 3f d8 a5 2c 37
       3.7276055e-07 -0.008873769 0.9005674 1.0290612e-05
000090 9a 19 c4 3f 76 c8 0f 40 71 9b 98 3f 57 d7 0a 3f
       1.5320313 2.2466102 1.1922437 0.5423483
0000a0 78 aa a3 bd 00 00 00 00 9b b2 d4 3f dd 95 bf 3f
       -0.07991499 0.0 1.6617006 1.496761
0000b0 3d 9e ed bd 00 00 00 00 00 00 00 00 00 00 00 00
       -0.11602447 0.0 0.0 0.0
0000c0 91 a4 e8 3f 00 00 00 00 ec 53 12 36 8a d1 12 33
       1.8175222 0.0 2.1804544e-06 3.418385e-08
0000d0 52 40 2d 40 eb ef 5c 35 95 db 9e 3f 13 fe 82 bd
       2.7070508 8.2305513e-07 1.2410761 -0.06396117
0000e0 00 00 00 00 cd 7d 8b bd 00 00 00 00 00 00 00 00
       0.0 -0.06811104 0.0 0.0
0000f0 5d 9b 1d 40 00 00 00 00 00 00 00 00 84 51 24 3f
       2.4626076 0.0 0.0 0.6418688
000100 4c 9b 4d be 16 3b 89 bc 80 8a 6c 35 96 f7 92 35
       -0.20078772 -0.016751807 8.8118395e-07 1.0949905e-06
000110 9b 4c 66 bd 37 75 bb bb 65 d0 f2 bd 58 19 a8 bd
       -0.0562254 -0.00572076 -0.11856154 -0.08207959
000120 07 33 da 34 97 18 9c bd b9 47 10 bd 20 ea e6 bc
       4.0642792e-07 -0.07621878 -0.03522465 -0.028187811
000130 28 01 57 bd 00 00 00 00 36 b8 07 3b 7f c1 7d bb
       -0.052491337 0.0 0.0020709164 -0.003872007
000140 00 00 00 00 00 00 00 00 ff 50 68 bb e7 1a 44 be
       0.0 0.0 -0.0035448668 -0.19150887
000150 8f e2 54 be 66 e7 cd bc b7 21 2a be 00 00 00 00
       -0.2078955 -0.025134753 -0.16614424 0.0
000160 e5 4e 3b 33 3e 22 14 bb f8 8e 6d bd 00 00 00 00
       4.3611085e-08 -0.0022603418 -0.057997674 0.0
000170 dd 3a ae bd 68 39 e6 bc 4a de b7 be e8 32 cd bd
       -0.08507321 -0.028103545 -0.3591178 -0.10019475
000180 61 07 2a 33 f0 ae 89 bd 62 cc e7 bd ad af 17 bd
       3.958792e-08 -0.0672282 -0.1131828 -0.03703277
000190 5e e3 96 bd 2d 65 b7 bd 61 63 02 be af 0d 4c bd
       -0.073675856 -0.089548446 -0.12733223 -0.049817737
0001a0 a0 19 a6 bb 00 00 00 00 ef 80 1d be d1 b1 d9 bd
       -0.0050689727 0.0 -0.15381216 -0.10629619
0001b0 7f 1e 2d bd 00 00 00 00 00 00 00 00 00 00 00 00
       -0.04226541 0.0 0.0 0.0
0001c0 60 8c a5 be 00 00 00 00 4b a4 42 34 be 29 9e bc
       -0.3233366 0.0 1.8127427e-07 -0.019307014
0001d0 25 6e 44 be d5 dc 4b 33 42 3d 7b bd 74 97 9f bb
       -0.19182642 4.7465466e-08 -0.061337717 -0.0048703495
0001e0 00 00 00 00 bb 88 97 bb 00 00 00 00 4b 73 cc bb
       0.0 -0.004624454 0.0 -0.00623933
0001f0 6e 30 68 be 00 00 00 00 00 00 00 00 c5 c9 dc bd
       -0.22674724 0.0 0.0 -0.10780672
000200 25 d9 82 be f1 b8 f3 bc 00 00 00 00 00 00 00 00
       -0.25556293 -0.029751273 0.0 0.0
000210 5d 9f 7d bd dc c2 1f bd 2e a5 f3 3e 8a 4a f4 3e
       -0.06191956 -0.03900419 0.4758696 0.4771312
000220 00 00 00 00 f6 30 0b 3f 57 3d ed 3e 24 09 17 be
       0.0 0.54371583 0.4633586 -0.1474958
000230 71 ff 0b be 00 00 00 00 f4 ce 6c bd 3d 82 d7 bc
       -0.13671662 0.0 -0.057814553 -0.02630722
000240 00 00 00 00 00 00 00 00 a0 48 a6 b9 f9 62 02 be
       0.0 0.0 -0.00031716097 -0.12733068
000250 87 85 3c 3e af 1a 8e 38 aa c4 67 3e 00 00 00 00
       0.18410312 6.776058e-05 0.22633615 0.0
000260 00 00 00 00 12 ab 46 bc f4 2a 07 be 00 00 00 00
       0.0 -0.012125747 -0.13199979 0.0
000270 45 39 e8 be 00 00 00 00 de 7c 46 be 5d a0 57 be
       -0.45356193 0.0 -0.1938357 -0.21057267
000280 00 00 00 00 08 be 91 be 8b bb d2 bd 80 c8 e3 b8
       0.0 -0.28465295 -0.10289677 -0.000108615495
000290 4a 9d c9 3e 68 17 0f 3f 79 bb fd bd b9 b7 0f 3d
       0.39377815 0.5589509 -0.12389273 0.03508732
0002a0 c6 a6 1b bd 00 00 00 00 b2 04 a2 3e d4 67 28 3e
       -0.038000844 0.0 0.31644207 0.16445857
0002b0 54 1a 28 be 00 00 00 00 00 00 00 00 00 00 00 00
       -0.16416293 0.0 0.0 0.0
0002c0 0c e7 58 be 00 00 00 00 00 00 00 00 00 00 00 00
       -0.21181887 0.0 0.0 0.0
0002d0 6f 45 28 3e 00 00 00 00 c2 ff 53 3e 72 1a f4 bc
       0.16432737 0.0 0.20703033 -0.029797766
0002e0 00 00 00 00 fe bc 03 bd 00 00 00 00 00 00 00 00
       0.0 -0.03216266 0.0 0.0
0002f0 85 e8 72 3e 00 00 00 00 00 00 00 00 cf 91 c9 3d
       0.23721512 0.0 0.0 0.09842264
000300 b8 27 b2 bd 69 73 6b 39 32 5c 6f 35 c3 a1 cc 35
       -0.08698982 0.0002245434 8.91686e-07 1.5246263e-06
000310 99 c9 60 bd 15 d7 a6 bb 64 0b 40 3d 2e e4 a9 3d
       -0.05487976 -0.0050915577 0.046885863 0.08295475
000320 1c a9 f4 34 ec 04 6b 3d bb 9a 6d 3d ad 66 e2 bc
       4.5571585e-07 0.05737774 0.05800889 -0.02763685
000330 63 7a 52 bd 00 00 00 00 49 9f 46 bc 77 4b 62 bb
       -0.05138625 0.0 -0.0121229375 -0.0034529844
000340 00 00 00 00 00 00 00 00 9f a6 63 bb 82 81 02 bd
       0.0 0.0 -0.0034736765 -0.03186179
000350 80 a6 2c bc f5 e4 c8 bc dc c5 85 bc 00 00 00 00
       -0.010537744 -0.024523238 -0.016329698 0.0
000360 f3 ba 41 33 4b b2 10 bb 57 22 62 bd 00 00 00 00
       4.5106344e-08 -0.0022078927 -0.05520853 0.0
000370 f7 ef a9 bd 3a 91 e0 bc 9c 7a 02 be c9 c8 28 bd
       -0.08297723 -0.027413 -0.12742084 -0.04120711
000380 75 a9 2b 33 9a 3f 87 bd 30 a0 80 bc 4c fb 13 bd
       3.996816e-08 -0.06603928 -0.015701383 -0.036128327
000390 64 0e a2 3d 0b de 96 3d 0c 3e c5 bc 34 19 d5 bb
       0.07912901 0.0736657 -0.024077438 -0.0065032486
0003a0 4a e6 8c bb 00 00 00 00 1a 68 2f bc 2f e9 b9 3c
       -0.0042999135 0.0 -0.010705972 0.022694198
0003b0 29 c3 cd bc 00 00 00 00 00 00 00 00 00 00 00 00
       -0.025117474 0.0 0.0 0.0
0003c0 83 f3 0b be 00 00 00 00 87 0a af 34 c0 30 9a bc
       -0.13667111 0.0 3.260395e-07 -0.018822074
0003d0 17 8c 6e 3c 81 c1 da 33 d8 fd 08 3d 1a a7 94 bb
       0.014559767 1.0186614e-07 0.03344521 -0.0045365216
0003e0 00 00 00 00 12 76 85 bb 00 00 00 00 a6 0e c7 bb
       0.0 -0.004072913 0.0 -0.0060747443
0003f0 08 4e 4b bc 00 00 00 00 00 00 00 00 18 94 2d bd
       -0.012408741 0.0 0.0 -0.04237756

exp_avg_sq f4 [64, 64]
000000 40 a9 60 40 0c cf 7e 40 1b 0a 19 37 d9 ab b3 37
       3.5103302 3.9813871 9.1218635e-06 2.1418486e-05
000010 05 19 8c 36 85 53 c7 3e fc d3 27 41 ca eb 0a 41
       4.175238e-06 0.38930908 10.489254 8.682566
000020 28 1a 2b 36 90 39 ce 40 49 07 81 40 54 16 a1 37
       2.549621e-06 6.4445267 4.0321393 1.9203093e-05
000030 76 74 38 38 00 00 00 00 c7 33 c5 3e 32 cf 36 3e
       4.397748e-05 0.0 0.38516065 0.17852476
000040 00 00 00 00 00 00 00 00 00 00 00 00 e1 de 50 40
       0.0 0.0 0.0 3.2636034
000050 6b 25 d4 40 a0 e0 0e 32 54 d2 ae 40 00 00 00 00
       6.6295676 8.316562e-09 5.463175 0.0
000060 c0 ac 46 33 d8 59 d5 3a 67 0d 41 40 00 00 00 00
       4.6257583e-08 0.0016277386 3.016443 0.0
000070 ed d3 d9 3e ee 05 76 36 7e 79 33 41 d6 4d b6 3f
       0.425445 3.6660308e-06 11.217161 1.4242504
000080 72 d1 2d 33 f4 14 10 3d fc e2 12 40 4b 7e ce 37
       4.047019e-08 0.035176232 2.295104 2.4615923e-05
000090 8b 87 1d 41 6f 10 17 41 24 73 ae 3f d4 2b a1 3e
       9.845592 9.441512 1.3628888 0.3147875
0000a0 9b 71 1e 3f 00 00 00 00 c2 3d 87 40 55 d3 3c 40
       0.618921 0.0 4.226289 2.9503987
0000b0 1f 09 2d 40 00 00 00 00 00 00 00 00 00 00 00 00
       2.7036817 0.0 0.0 0.0
0000c0 0c 95 bb 40 00 00 00 00 fc 39 e5 35 1d 30 cc 30
       5.861944 0.0 1.7078705e-06 1.4856628e-09
0000d0 cd 95 0e 41 d4 b5 04 35 10 aa 0d 40 ca 56 d8 3d
       8.911572 4.9438427e-07 2.2135048 0.10563429
0000e0 00 00 00 00 d8 ff 91 3e 00 00 00 00 00 00 00 00
       0.0 0.28515506 0.0 0.0
0000f0 11 68 f9 40 00 00 00 00 00 00 00 00 7c 38 a0 3f
       7.7939534 0.0 0.0 1.2517238
000100 4f d2 a8 3d e3 7a 7e 3d f4 0b d6 33 48 a9 8c 34
       0.08243238 0.062128913 9.967326e-08 2.62002e-07
000110 b5 a1 29 3c 8d 0f 99 3b 76 f6 29 3e 47 3e 97 3c
       0.010353495 0.0046710433 0.16597924 0.018462313
000120 8f da 10 33 6e a7 99 3d 98 99 06 3c 8c 8d 5d 3b
       3.372639e-08 0.07502638 0.008215331 0.0033806292
000130 de c6 ce 3b 00 00 00 00 65 8c 84 38 04 9c 0d 3b
       0.006310328 0.0 6.320401e-05 0.0021607885
000140 00 00 00 00 00 00 00 00 4e 58 de 38 19 fb 51 3d
       0.0 0.0 0.00010602233 0.051264856
000150 fa e4 87 3d f1 14 75 3b f6 e8 20 3d 00 00 00 00
       0.06635471 0.0037396515 0.03928467 0.0
000160 f8 95 11 30 1b 19 c5 37 4d b1 32 3d 00 00 00 00
       5.296381e-10 2.349592e-05 0.04362612 0.0
000170 2f 50 6c 3c 11 13 9d 3b 6f ce 86 3e ed 2b e2 3c
       0.014423414 0.0047935327 0.2632937 0.027608836
000180 a7 58 f7 2f d1 cb 8c 3b 5b 2d 39 3d 1c 17 02 3c
       4.499203e-10 0.0042967577 0.04520927 0.00794008
000190 11 73 17 3e 83 ff 9b 3c 65 28 af 3c f2 7b 3e 3b
       0.14789988 0.019042736 0.021381566 0.0029065576
0001a0 05 48 ef 3b 00 00 00 00 63 5c 76 3d f7 f3 d4 3c
       0.0073022866 0.0 0.0601467 0.025995238
0001b0 cb bd 18 3d 00 00 00 00 00 00 00 00 00 00 00 00
       0.037290376 0.0 0.0 0.0
0001c0 41 e4 2e 3e 00 00 00 00 6b b4 5f 32 9d 5c 27 3b
       0.1707926 0.0 1.3021331e-08 0.002553738
0001d0 eb 35 59 3d fe 7b 09 31 af 59 dc 3b 57 42 ae 3a
       0.053029936 2.0006605e-09 0.0067245583 0.0013294917
0001e0 00 00 00 00 f5 5d 5d 3b 00 00 00 00 7a 78 dc 39
       0.0 0.0033777927 0.0 0.00042051432
0001f0 df 51 b9 3d 00 00 00 00 00 00 00 00 66 03 2b 3d
       0.09048819 0.0 0.0 0.041751288
000200 0e 49 f2 3e 9d 80 0b 3f 00 00 00 00 00 00 00 00
       0.4732136 0.54493123 0.0 0.0
000210 4a 79 07 39 d7 b6 68 3d 93 d1 92 3f 94 69 68 3f
       0.00012919787 0.056814995 1.1470207 0.907861
000220 00 00 00 00 f2 27 30 3f 2b 8d f8 3e 8b cb 2f 3d
       0.0 0.6881095 0.48545203 0.042918723
000230 2a e5 0f 3d 00 00 00 00 f7 65 3b 3d dd aa d2 3c
       0.035130657 0.0 0.045751538 0.02571624
000240 00 00 00 00 00 00 00 00 66 f2 96 3a e2 3d c9 3e
       0.0 0.0 0.0011516332 0.39305025
000250 7a e4 0b 3f 0a 11 94 3a 36 6a 13 3f 00 00 00 00
       0.546455 0.0011296582 0.5758394 0.0
000260 00 00 00 00 e0 10 33 39 70 eb e2 3e 00 00 00 00
       0.0 0.00017077057 0.4432025 0.0
000270 1e b0 3a 3e 00 00 00 00 2b 21 97 3f b0 45 5e 3e
       0.18231246 0.0 1.1806997 0.21706271
000280 00 00 00 00 9a bf 4e 3d bf 19 84 3e be 75 00 3a
       0.0 0.050475694 0.25800893 0.00049003575
000290 fe 8a 88 3f 31 b4 82 3f 16 45 5a 3e 42 c7 03 3d
       1.0667417 1.021124 0.21315417 0.03217245
0002a0 8b ef ba 3d 00 00 00 00 78 bf b4 3e d0 3f 6c 3e
       0.091277204 0.0 0.3530233 0.23071218
0002b0 2b 06 c5 3e 00 00 00 00 00 00 00 00 00 00 00 00
       0.38481268 0.0 0.0 0.0
0002c0 d8 f1 29 3f 00 00 00 00 00 00 00 00 00 00 00 00
       0.6638465 0.0 0.0 0.0
0002d0 ff eb 81 3f 00 00 00 00 44 be 5c 3e 4a 60 6a 3c
       1.0150145 0.0 0.21556956 0.014305184
0002e0 00 00 00 00 db 10 2e 3d 00 00 00 00 00 00 00 00
       0.0 0.042496543 0.0 0.0
0002f0 eb f6 1b 3f 00 00 00 00 00 00 00 00 da b1 fe 3d
       0.6092364 0.0 0.0 0.12436266
000300 44 02 72 3d f0 1d 73 3d 55 97 e0 33 d3 49 9e 35
       0.059084192 0.059354722 1.045834e-07 1.1793403e-06
000310 b5 56 3f 3c d0 64 a2 3b f7 b5 db 3d 27 34 58 3d
       0.011678387 0.0049558654 0.107280664 0.05278411
000320 3c 91 b2 33 5a 07 a4 3d 2a 4f 3f 3d 14 59 78 3c
       8.315189e-08 0.08009215 0.046706356 0.015157957
000330 09 9c 59 3c 00 00 00 00 18 d3 f4 3b 50 57 16 3b
       0.013281831 0.0 0.0074714534 0.0022940226
000340 00 00 00 00 00 00 00 00 a0 e2 cc 39 bd f7 82 3d
       0.0 0.0 0.0003907876 0.063949086
000350 6a 20 26 3c e2 e0 89 3b 7d ac 0b 3d 00 00 00 00
       0.010139564 0.0042077163 0.034100045 0.0
000360 eb 51 27 30 a5 ae d5 37 c4 99 40 3d 00 00 00 00
       6.087066e-10 2.5472904e-05 0.047021642 0.0
000370 dc 49 30 3d 8b 04 b1 3b fd 69 cb 3d 8c b6 f2 3c
       0.043039188 0.005402153 0.09932325 0.02962806
000380 ec c7 f8 2f a4 ec 71 3c ff ee b8 3c 21 c7 15 3c
       4.525299e-10 0.014765892 0.0225749 0.009141714
000390 d8 87 d0 3d d2 5f 80 3d 7e 89 47 3d 25 6b b0 3a
       0.1018216 0.06268276 0.048715107 0.0013459666
0003a0 9a 7f fd 3b 00 00 00 00 19 2b 97 3c e0 fa 7f 3b
       0.0077361586 0.0 0.018453168 0.0039059445
0003b0 a2 07 0e 3d 00 00 00 00 00 00 00 00 00 00 00 00
       0.034675248 0.0 0.0 0.0
0003c0 a7 e0 bc 3d 00 00 00 00 80 c7 a9 33 22 8a 3c 3b
       0.092225365 0.0 7.9059646e-08 0.0028768857
0003d0 b9 e0 b3 3d 00 c4 05 32 60 c8 2a 3c 92 90 ba 3a
       0.08783097 7.786184e-09 0.01042375 0.0014233759
0003e0 00 00 00 00 83 9f 6a 3b 00 00 00 00 39 43 fb 39
       0.0 0.0035800643 0.0 0.00047924535
0003f0 06 ea 89 3a 00 00 00 00 00 00 00 00 48 15 a6 3c
       0.0010522015 0.0 0.0 0.02027382

exp_avg f4 [64]
000000 39 69 c5 40 80 56 09 bf 55 2f 33 3f 68 24 31 b4
       6.1690946 -0.53647614 0.699941 -1.6497654e-07
000010 e4 ad 6d bf 00 00 00 00 00 00 00 00 07 fb 1c 37
       -0.9284346 0.0 0.0 9.356771e-06
000020 00 00 00 00 d5 d9 29 37 79 da f9 bf b1 c7 28 37
       0.0 1.0123903e-05 -1.9519798 1.0060075e-05
000030 4d 26 8a 3b e7 0c 73 3e 76 bb 87 3e ad f9 d0 b6
       0.0042159916 0.2373539 0.2651021 -6.227949e-06
000040 0d d3 75 3c fe b7 95 b8 6b b1 05 3f 00 00 00 00
       0.015003932 -7.139145e-05 0.52223843 0.0
000050 93 96 82 3f 14 b6 d2 38 1a 84 8a 37 90 85 1a 36
       1.0202202 0.00010047495 1.6512397e-05 2.3025532e-06
000060 34 ea 63 bd 98 14 da 36 7a 17 63 b9 77 59 04 b6
       -0.055643275 6.4993037e-06 -0.00021657153 -1.9721608e-06
000070 90 fe 23 35 d9 2c cc bf e3 02 20 40 42 02 83 35
       6.109267e-07 -1.5951186 2.5001762 9.760918e-07
000080 cd 40 24 36 a1 c3 20 37 7a ed aa bf fe 1e 09 35
       2.4475623e-06 9.582292e-06 -1.3353722 5.1081577e-07
000090 25 6e 1d 3f ed 9b 6e b6 e9 91 19 36 50 37 f6 34
       0.6149619 -3.5555524e-06 2.2883708e-06 4.5861316e-07
0000a0 6f 35 d0 b6 00 00 00 00 3f 45 e3 36 29 76 f5 36
       -6.2051035e-06 0.0 6.7731885e-06 7.3153246e-06
0000b0 c2 91 2d bf 31 33 84 bf 49 19 bf be 4c 95 c5 34
       -0.67800534 -1.0328122 -0.3732398 3.6802737e-07
0000c0 ed b5 b2 38 4a bb 4e 36 89 40 cd 3f 00 00 00 00
       8.521588e-05 3.0805409e-06 1.603532 0.0
0000d0 96 c6 fd b9 35 76 8c bf 4f b3 6b 3d 58 db 8f 38
       -0.00048403878 -1.0973574 0.05754405 6.859627e-05
0000e0 df fe 54 bf 4b db db 35 19 6d 74 38 52 af fe 36
       -0.832014 1.6380594e-06 5.827574e-05 7.5902e-06
0000f0 00 00 00 00 b4 bf 5f b6 00 00 00 00 c7 3a ef 38
       0.0 -3.3341175e-06 0.0 0.00011407356
