trained_models/Continuous2D-v0/good_combo/1/agent_reward_model_SingleIntegrator-v0_2021-10-18_14-25-42_15.pt (torch, 61955 bytes, 15 tensors)

l1.weight f4 [64, 6]
0	0x3e8b187f	0.27167127
1	0xbd20435d	-0.039126743
2	0x3d6bcbce	0.05756741
3	0x3e841dd0	0.25803995
4	0x3e6ab72b	0.22921436
5	0xbd166f2c	-0.036727116
6	0xbe9701ed	-0.29493657
7	0xbc995118	-0.018715426
8	0xbe8f821e	-0.2802896
9	0x3ec58c46	0.38583583
10	0x3eb9e5ae	0.36308044
11	0xbe9e1f60	-0.30883312
12	0xbe08f9ab	-0.13376491
13	0x3d8668fb	0.06562992
14	0x3df9f3be	0.12204693
15	0xbeaa5486	-0.3326761
16	0xbea43d43	-0.3207799
17	0x3eb7d9b7	0.3590829
18	0x3e2e64f0	0.17030692
19	0x3e941fbe	0.28930467
20	0xbe9775a2	-0.29581934
21	0x3e7a733c	0.24458021
22	0xbc5b219b	-0.013374711
23	0x3e2a2fd7	0.16619812
24	0x3e09303b	0.13397305
25	0x3e4d585a	0.20053235
26	0x3e920162	0.2851668
27	0xbeccf39d	-0.40029612
28	0xbe3ae5e3	-0.18251757
29	0xbec09926	-0.37616843
30	0xbdbb395c	-0.091418
31	0xb9a46c09	-0.0003136101
32	0xbe2bf26b	-0.16791694
33	0x3ed09029	0.40734985
34	0x3ec173ee	0.3778376
35	0xbe84319a	-0.25819093
36	0xbebf5464	-0.37369072
37	0x3c293947	0.010328597
38	0x3e2cccd2	0.16875008
39	0x3d261e7b	0.040556412
40	0x3ea75de2	0.32688814
41	0xbebb0b59	-0.36532095
42	0xbddc054d	-0.107431985
43	0xbe5775fc	-0.21041101
44	0xbec71406	-0.38882464
45	0x3e2cc3c8	0.1687156
46	0xbec00fc3	-0.37512025
47	0xbd555a6b	-0.052088182
48	0x3e3d29de	0.18473002
49	0x3b62aedd	0.003458909
50	0x3e073418	0.13203466
51	0x3eaa0798	0.3320892
52	0xbe83ce2a	-0.25743228
53	0x3eb87789	0.36028698
54	0xbec90818	-0.39263988
55	0xbb22ee99	-0.0024861454
56	0x3e87048e	0.26370662
57	0xbe1e2f94	-0.15447837
58	0x3e01cca6	0.12675723
59	0x3e794fb5	0.24346812
60	0xbe8030af	-0.25037143
61	0xbe4fccd5	-0.20292981
62	0x3d94827c	0.072514504
63	0xbe862acf	-0.26204535
64	0xbecc5eb9	-0.39916018
65	0xbeb87d33	-0.3603302
66	0x3ea632c5	0.3246061
67	0xbe078a6d	-0.13236399
68	0xbe478750	-0.19485211
69	0x3deb0edd	0.11477444
70	0xba8e225b	-0.0010843979
71	0xbcad44b0	-0.021150917
72	0x3eb8efc6	0.36120433
73	0x3e387cd5	0.1801637
74	0x3e3ecd92	0.18633106
75	0xbe289ef7	-0.1646689
76	0x3d6407c8	0.055671483
77	0x3ea48406	0.32131976
78	0x3df06a44	0.117390186
79	0x3d85a7e7	0.065261655
80	0xbb549451	-0.0032437036
81	0xbe90f1d3	-0.28309497
82	0xbe5e6b35	-0.21720584
83	0xbe568147	-0.20947753
84	0xbe8ebf7a	-0.2788046
85	0x3e105fc3	0.1409903
86	0xbd35a4cf	-0.044346627
87	0x3df265f9	0.11835856
88	0xbc8f6de0	-0.017508447
89	0xbd8eec56	-0.06978671
90	0xbd3891a2	-0.04506076
91	0xbecd095c	-0.40046203
92	0x3c70077e	0.014650224
93	0x3eb9f056	0.36316174
94	0x3e460b0f	0.19340156
95	0x3e218b17	0.15775715
96	0xbe8e6b84	-0.27816403
97	0x3d53140d	0.051532794
98	0xbbae4cb9	-0.0053192046
99	0x3e08fa87	0.13376819
100	0xbda9b8cc	-0.082872
101	0x3e86b481	0.2630959
102	0xbe604ac2	-0.21903518
103	0x3d02c013	0.031921457
104	0x3eae089c	0.33990943
105	0xbe6c0426	-0.23048458
106	0x3d09ba9f	0.03362524
107	0x3e4a3965	0.19748457
108	0x3e9a087c	0.30084598
109	0xbecec74e	-0.40386432
110	0x3de222c4	0.11041787
111	0xbd9acbd2	-0.07558407
112	0xbe92aa19	-0.286454
113	0xbea99ea8	-0.33128858
114	0x3ea9ac8f	0.33139464
115	0xbe904451	-0.2817712
116	0xbea9c77f	-0.33160016
117	0xbe3a3694	-0.18184882
118	0xbd80ff42	-0.062986866
119	0x3af2f138	0.0018535024
120	0x3de468a9	0.11152775
121	0x3eb21d66	0.34788054
122	0xbdbdb5ce	-0.09263192
123	0xbdca8c3a	-0.09890027
124	0xbdb573f8	-0.0886001
125	0xbeb404c9	-0.351599
126	0x3e34a93d	0.17642684
127	0x3a3a089d	0.00070966204
128	0x3e48370a	0.19552246
129	0x3d1223af	0.03567856
130	0xbdeaf1ab	-0.11471876
131	0x3a35e32b	0.0006938453
132	0x3dcd8c9c	0.10036585
133	0x3ea1e043	0.3161641
134	0x3da1f5df	0.07908224
135	0x3e0fc039	0.14038171
136	0xbebc23d4	-0.36746085
137	0x3e9b8b9b	0.30379948
138	0xbe2e1d23	-0.17003302
139	0xbe82bdb7	-0.25535366
140	0xbeca1895	-0.3947188
141	0x3eabd367	0.33559725
142	0xbec5bd04	-0.3862077
143	0x3e4118f0	0.18857169
144	0x3ce9cf3e	0.028541204
145	0x3e3c606f	0.18396161
146	0x3e752678	0.23940456
147	0xbec22f39	-0.37926653
148	0x3ea04878	0.3130529
149	0x3ec77b88	0.38961434
150	0x3e53458d	0.20632
151	0xbdd44ea2	-0.103665605
152	0xbe4d6bc1	-0.20060636
153	0x3dece409	0.11566932
154	0x3ea1608a	0.31518966
155	0xbd431ed0	-0.047636807
156	0xbe2da8ba	-0.16958895
157	0x3ec81955	0.39081827
158	0x3ec15638	0.37761092
159	0xbec84026	-0.3911144
160	0x3ec18b8d	0.3780178
161	0x3d831600	0.064006805
162	0xbe80a201	-0.251236
163	0xbec23d4b	-0.37937388
164	0x3d71a6c9	0.05899695
165	0x3e1ecfa3	0.15508895
166	0x3ecb63e1	0.3972464
167	0x3e17c99f	0.14823006
168	0x3ed387b8	0.41314483
169	0xbde33e2a	-0.11095841
170	0xbeb31e9a	-0.34984285
171	0xbe02f73c	-0.12789625
172	0x3e260137	0.16211401
173	0xbe0b674b	-0.13613622
174	0xbcf13d82	-0.029448275
175	0xbd502f63	-0.05082644
176	0x3e8d0b59	0.2754772
177	0xbe44a79d	-0.19204564
178	0x3d3cba32	0.046076007
179	0x3e5e346d	0.21699686
180	0x3ea412e8	0.32045674
181	0x3e614a86	0.22001085
182	0x3e70ec59	0.2352766
183	0x3e5a54ab	0.21321361
184	0x3e9d5517	0.3072898
185	0x3e8b50b4	0.2721001
186	0x3e3d4c8c	0.18486232
187	0x3e60b071	0.21942307
188	0xbdd9e042	-0.10638477
189	0xbe8df5d3	-0.27726611
190	0x3e3a6f62	0.18206552
191	0x3e90191b	0.28144154
192	0xbd81252c	-0.06305918
193	0x3d8a19b1	0.067431815
194	0xbec9b624	-0.39396775
195	0x3ea15966	0.31513518
196	0xbe04118b	-0.12897317
197	0x3cc7d5e7	0.024393989
198	0x3e5a1d36	0.21300206
199	0x3e98e0a1	0.29858878
200	0x3ba5afe5	0.0050563687
201	0xbc7da161	-0.01548037
202	0xbddd4d5b	-0.1080577
203	0x3dcc7982	0.09984113
204	0x3e0ad438	0.13557518
205	0xbe48a30f	-0.19593452
206	0xbe8f401a	-0.27978593
207	0xbe6f907e	-0.23394963
208	0x3e2c857c	0.16847795
209	0xbe94e185	-0.29078308
210	0x3e075e90	0.13219666
211	0x3de89af0	0.11357677
212	0x3e8b62f3	0.2722393
213	0x3eb0e885	0.34552398
214	0xbeb9d1da	-0.36292917
215	0x3b363e9e	0.002780832
216	0xbea5b61a	-0.32365495
217	0xbecaeb9b	-0.39632878
218	0xbe8897a4	-0.26678193
219	0x3ea43222	0.32069498
220	0x3ead097e	0.33796304
221	0x3d27e069	0.0409855
222	0xbe4f2080	-0.20227242
223	0x3e8bc1c2	0.27296263
224	0xbd23cf43	-0.039992582
225	0x3d118e47	0.035536077
226	0xbebaae84	-0.3646127
227	0x3ea90520	0.33011723
228	0x3e8f6ceb	0.28012785
229	0xbe40c46b	-0.18824928
230	0xbebbb90c	-0.36664617
231	0xbd9135e8	-0.0709036
232	0xbdc4d254	-0.096104294
233	0xbd5fe406	-0.05466082
234	0x3d1a1108	0.0376139
235	0xbe78d276	-0.24299034
236	0x3cb92445	0.022600302
237	0x3e6f9d33	0.2339981
238	0xbd2268a9	-0.039650593
239	0xbe797c1d	-0.24363752
240	0xbecf3075	-0.40466657
241	0xbec770bf	-0.38953206
242	0x3e9c1fb4	0.30492938
243	0x3e8d56a7	0.27605173
244	0x3e8fbdd1	0.28074506
245	0xbece198a	-0.4025386
246	0xbe295db5	-0.16539653
247	0x3e3e69d8	0.18595064
248	0x3e2aa567	0.16664658
249	0xbe0b8662	-0.13625482
250	0xbdc2722d	-0.094944336
251	0xbc6489a8	-0.013948835
252	0xbe06f544	-0.13179499
253	0xbe70a42f	-0.23500131
254	0x3eae9f61	0.3410597
255	0xbe1f4cd5	-0.15556653

l1.bias f4 [64]
0	0x3e14fec8	0.14550316
1	0x3df05253	0.11734452
2	0xbe52b62c	-0.20577306
3	0xbe303681	-0.17208292
4	0xbe0b65c4	-0.1361304
5	0xbe7c0da8	-0.24614584
6	0x3ec8d753	0.3922678
7	0x3eadcff7	0.33947727
8	0xbec3cc8e	-0.38242
9	0x3eae7954	0.3407694
10	0x3e6b8220	0.22998857
11	0xbe015b4f	-0.12632488
12	0xbe3667fc	-0.17813104
13	0xbe3886e2	-0.18020204
14	0x3d76687f	0.06015825
15	0xbddaba64	-0.106800824
16	0xbed009af	-0.40632388
17	0xbe772421	-0.24134876
18	0xbe7d12af	-0.24714158
19	0x3e635238	0.22199333
20	0x3eb08b41	0.34481242
21	0xbe119819	-0.14218177
22	0x3e867600	0.26261902
23	0xbe9fc34e	-0.31203693
24	0xbec72b19	-0.38900068
25	0xbeb087fa	-0.34478742
26	0xbcb28161	-0.021790208
27	0xbeccfb7f	-0.40035626
28	0xbdbcdacb	-0.09221419
29	0xbe094286	-0.13404283
30	0x3eb4b156	0.35291547
31	0x3d6b0081	0.057373527
32	0xbe855fb9	-0.26049593
33	0xbcc43ed7	-0.023955746
34	0x3e14e27b	0.1453952
35	0xbdd10ad7	-0.10207146
36	0x3eb9d392	0.36294228
37	0x3eb4cc20	0.35311985
38	0x3e02da87	0.12778674
39	0x3d8f57e8	0.06999189
40	0xbd81adcd	-0.06331978
41	0xbeb1335a	-0.3460949
42	0x3e93e38f	0.2888455
43	0x3e70d190	0.23517442
44	0x3ce5fd34	0.028074838
45	0xbe1d27e3	-0.15347247
46	0xbecc9154	-0.39954627
47	0xbebbc4d5	-0.36673608
48	0x3e844ff2	0.25842243
49	0xbecfca93	-0.4058424
50	0xbe8fac04	-0.28060925
51	0xbd83e026	-0.06439237
52	0x3ea83fba	0.3286112
53	0xbe8e0ecc	-0.27745664
54	0x3e37f69a	0.17965165
55	0xbe27c082	-0.1638203
56	0xbe308723	-0.1723905
57	0xbe599e37	-0.2125176
58	0xbdf0d132	-0.11758651
59	0xbded8880	-0.11598301
60	0x3ec43f7b	0.38329682
61	0xbeb248ab	-0.34821066
62	0xbece070f	-0.4023976
63	0x3e0280ea	0.1274449

l2.weight f4 [64, 64]
0	0x3d0fd3ee	0.03511422
1	0x3dd7e408	0.105415404
2	0xbde8533b	-0.11344
3	0x3d939b5e	0.07207368
4	0x3d181519	0.037129495
5	0x3d5aba7d	0.053400505
6	0x3e02ffcc	0.12792891
7	0x3dbfbe4b	0.093624674
8	0x3ced11a4	0.028939076
9	0x3df2b6f8	0.11851305
10	0xbde79ddc	-0.11309406
11	0xbd5c1891	-0.053734366
12	0xbd5c75e3	-0.053823363
13	0x3d057390	0.032580912
14	0xbd414405	-0.04718401
15	0xbdf006bb	-0.11720034
16	0x3dc7a7c6	0.09748797
17	0x3d922462	0.07135846
18	0xbd8fffec	-0.07031235
19	0xbd870353	-0.06592431
20	0x3cf4c4c0	0.029878974
21	0x3ccdecf3	0.0251374
22	0x3cef9269	0.029244618
23	0xbdae3e98	-0.085080326
24	0x3d039f05	0.032134075
25	0xbbe26ef2	-0.0069101984
26	0x3c64fcfd	0.013976333
27	0xbd56ec9c	-0.052471742
28	0xbcf0d148	-0.029396668
29	0xbd9ecd1b	-0.077539645
30	0x3c4943aa	0.012284199
31	0xbd4341bd	-0.047670115
32	0xbdcc65b0	-0.09980333
33	0xbcd2e906	-0.02574588
34	0xbd09308d	-0.033493567
35	0xbdbbd658	-0.09171742
36	0xbd11e0c6	-0.03561475
37	0xbdad0347	-0.08447891
38	0xbdb51781	-0.08842374
39	0x3e06f6e4	0.13180119
40	0x3d88c134	0.066774756
41	0xbdd0b242	-0.1019025
42	0xbdd5c564	-0.1043804
43	0xbdc3657e	-0.095408425
44	0x3d1c2e98	0.038130373
45	0xbdd8e698	-0.10590857
46	0x3d918d62	0.07107045
47	0xbc8909a0	-0.016728222
48	0xbd414873	-0.047188234
49	0xbd4cd4ec	-0.050007746
50	0x3becc016	0.007225047
51	0xbd845cdf	-0.06463026
52	0x3dd6dc13	0.104911946
53	0xbc5105eb	-0.012757759
54	0xbdccbe2e	-0.099972114
55	0x3cfffbb2	0.031247947
56	0x3d01cadc	0.031687602
57	0xbce3b700	-0.027797222
58	0x3de1f61c	0.1103327
59	0xbda54cf0	-0.08071315
60	0xbdcf1a62	-0.10112454
61	0xbd881a2e	-0.066456184
62	0xbd66a594	-0.05631025
63	0xbb976a1f	-0.004620805
64	0x3cb817e0	0.022472322
65	0x3de9c5c5	0.11414675
66	0x3c9e42e0	0.019318998
67	0x3c80a77d	0.015704865
68	0x3e07e738	0.13271797
69	0xbd4a20b9	-0.049347613
70	0xbdd7531a	-0.10513897
71	0xbd668986	-0.056283496
72	0xbd7daf62	-0.061934836
73	0x3c6112a8	0.013737358
74	0xbd2358f1	-0.039879743
75	0xbdbf0ecc	-0.09328994
76	0xbdb454a1	-0.08805204
77	0xbcf354f0	-0.029703587
78	0xbdd85fd5	-0.105651535
79	0x3d64576f	0.055747446
80	0x3d204a40	0.03913331
81	0x3deceb48	0.11568314
82	0x3c0e920e	0.008701814
83	0x3d753bdf	0.05987155
84	0xbdae4314	-0.08508888
85	0x3d48451c	0.048894033
86	0xbdeb8e47	-0.115017466
87	0xbc5f1b00	-0.013617277
88	0x3cb3f149	0.02196564
89	0x3d630724	0.05542673
90	0x3db51f0a	0.08843811
91	0x3dc4ece8	0.09615499
92	0xbdb805f4	-0.089855105
93	0xbd94ef9a	-0.07272263
94	0x3dc7f525	0.097635545
95	0xbd119b62	-0.035548575
96	0xbdf88143	-0.1213403
97	0xbd3db5a6	-0.04631581
98	0x3de353df	0.110999815
99	0x3dbe876e	0.09303175
100	0x3b57ad05	0.0032909524
101	0xbd0cc6bf	-0.034369227
102	0xbd98671f	-0.07441544
103	0x3deafa8f	0.114735715
104	0x3d7efda0	0.062253594
105	0xbdb29412	-0.087196484
106	0xbdd5e25d	-0.10443566
107	0xbd026433	-0.03183384
108	0x3dbd90fa	0.09256168
109	0xbd99c678	-0.07508558
110	0x3dc9780e	0.09837352
111	0xbaf1f480	-0.0018459707
112	0xbd13c4e8	-0.036076456
113	0x3dbea99a	0.09309693
114	0xbde7db30	-0.113211036
115	0x3ddcd5cc	0.10782966
116	0x3dfc8a04	0.12331012
117	0x3c0a35aa	0.008435646
118	0xbd82e3ca	-0.063911036
119	0xbbf53572	-0.007483178
120	0xbd4653b4	-0.04841967
121	0xbc6f18e2	-0.014593335
122	0xbd62a3ac	-0.05533187
123	0x3d65345b	0.055958133
124	0x3d58fe0b	0.05297665
125	0xbddc150c	-0.10746202
126	0x3cc821c0	0.024430156
127	0x3c2f2ec5	0.010692303
128	0xbd92a099	-0.07159538
129	0xbd33253b	-0.043736678
130	0x3cc13910	0.02358678
131	0x3de4c2c2	0.111699596
132	0xbda04c10	-0.07827008
133	0xbd43d271	-0.047808114
134	0x3dd066c2	0.101758495
135	0xbdc9ce5f	-0.09853815
136	0x3c5f2360	0.013619274
137	0xbc9a405e	-0.01882952
138	0x3da9b8d5	0.08287207
139	0x3b60fee6	0.0034331619
140	0xbce36a98	-0.027760789
141	0x3dfa8a1a	0.12233372
142	0x3c8dc891	0.017307552
143	0x3d1e0d71	0.038587037
144	0xbdcf01d8	-0.101077735
145	0xbc2afc80	-0.010436177
146	0xbbec0e7f	-0.0072038765
147	0x3da50f2c	0.080595344
148	0xbc84ea55	-0.01622502
149	0xbd994b2e	-0.074850425
150	0xbd400926	-0.046883725
151	0xbddd11c4	-0.10794404
152	0xbda3ccb2	-0.07998027
153	0xbd7d5dc5	-0.061857004
154	0xbd3191c9	-0.043351922
155	0x3d5f7018	0.05455026
156	0x3dfbe381	0.12299252
157	0xbbb97200	-0.005659342
158	0xbdda887d	-0.10670564
159	0x3da1ba6a	0.07896884
160	0x3d75aec8	0.059981138
161	0x3de1e1aa	0.1102937
162	0xbbb90c98	-0.0056472532
163	0xbdae783d	-0.085190274
164	0xbcfbdff2	-0.030746434
165	0x3d6994e6	0.057026766
166	0x3d6583b7	0.056033816
167	0x3d565a16	0.052332006
168	0x3de3cec8	0.11123425
169	0x3cd125a8	0.025530651
170	0xbcd5bf97	-0.026092334
171	0xbdc72370	-0.09723556
172	0xbd08b676	-0.033377133
173	0x3ddb8738	0.1071915
174	0xbd4d5118	-0.050126165
175	0x3d1767c4	0.036964193
176	0xbd7b071f	-0.061286088
177	0x3adf2280	0.0017023832
178	0x3dfdfb92	0.12401499
179	0x3d601c10	0.054714262
180	0xbdc2a125	-0.09503392
181	0x3dd0a686	0.10188012
182	0xbbc601d7	-0.0060427
183	0xbd070ef1	-0.032973234
184	0x3dca131c	0.09866926
185	0xbbf8acf8	-0.007588979
186	0xbd5023ac	-0.05081527
187	0x3b8bbb80	0.004264295
188	0x3d80cbb1	0.06288851
189	0xbde028f6	-0.10945313
190	0xbcfbeaa8	-0.030751541
191	0xbd6ce55b	-0.057835918
192	0x3dc916bc	0.09818789
193	0xbb899246	-0.0041983454
194	0x3de0fdf0	0.10985935
195	0x3c4e55f9	0.01259374
196	0xbd3d5c14	-0.04623039
197	0xbde0ccb2	-0.109765425
198	0x3d7bd5c7	0.06148317
199	0xbdcf88d3	-0.10133519
200	0x3dac2896	0.08406179
201	0x3de333ca	0.11093862
202	0xbdb8a41a	-0.09015675
203	0x3db462da	0.08807917
204	0xbdddef7f	-0.10836696
205	0x3d33a740	0.043860674
206	0x3d0d1f96	0.03445395
207	0x3c991640	0.018687367
208	0xbdfb6aee	-0.122762546
209	0x3dc78884	0.09742835
210	0xbdf3e8af	-0.11909615
211	0xbd36b50c	-0.044606254
212	0xbde5403e	-0.11193894
213	0xbad80da2	-0.0016483555
214	0x3d27ab8c	0.040935084
215	0x3def1a74	0.116749674
216	0xbdb7694f	-0.08955633
217	0x3dacaf6a	0.08431895
218	0x3d3f269e	0.046667688
219	0x3d2bfd90	0.041989863
220	0x3ce2a453	0.027666247
221	0xbddeb67c	-0.1087465
222	0x3b9168bc	0.004437534
223	0x3d87bd81	0.06627942
224	0x3dada7ef	0.084792964
225	0x3da386a4	0.07984665
226	0xbda64094	-0.08117786
227	0xbde5df57	-0.11224239
228	0xbd29132a	-0.041278042
229	0xbde112ec	-0.10989937
230	0x3dd952d0	0.10611498
231	0xbbb4469c	-0.0055015814
232	0x3e00a7ae	0.12563965
233	0x3c62d950	0.013845757
234	0x3dcafaf3	0.09911146
235	0xbd66c121	-0.056336526
236	0x3db33862	0.087509885
237	0x3d201df4	0.039091066
238	0xbbf29ae0	-0.0074037164
239	0x3dd3a46e	0.10334097
240	0xbca704ee	-0.020388093
241	0x3df33e2c	0.11877093
242	0x3db02411	0.08600629
243	0x3c15c01d	0.009140042
244	0xbd625d19	-0.055264566
245	0xbd9ac912	-0.07557882
246	0x3cfcfcf2	0.030882332
247	0x3daeeab9	0.085408635
248	0xbc8a5c40	-0.016889691
249	0xbd1e65d8	-0.038671345
250	0x3cada4e8	0.021196797
251	0x3d9d5c17	0.0768358
252	0x3db74119	0.08947963
253	0xbdf795ae	-0.12089096
254	0xbdf1f378	-0.11814016
255	0x3d815bf7	0.06316369

l2.bias f4 [64]
0	0x3d910d4d	0.07082615
1	0x3cc3fe51	0.023924978
2	0x3e05a3ed	0.13050814
3	0x3dfcf769	0.12351877
4	0xbdcfaab3	-0.1013998
5	0x3cf7d048	0.030250683
6	0xbdc37a7a	-0.09544845
7	0x3de91467	0.113808446
8	0x3d20cc84	0.03925754
9	0x3d45879d	0.048225034
10	0xbcc4aad2	-0.024007235
11	0xbcabb00d	-0.020957971
12	0x3d940e6b	0.072293125
13	0x3c606940	0.013696969
14	0xbde99ed0	-0.11407244
15	0xbd0b83c9	-0.034061227
16	0xbca98940	-0.020695329
17	0x3d6b59fb	0.05745886
18	0x3df10cd0	0.11770022
19	0xbd945250	-0.07242262
20	0x3d60e767	0.054908182
21	0xbc80bbe4	-0.015714593
22	0xbd9f7246	-0.07785468
23	0x3d510a2c	0.05103509
24	0x3ddcd9f1	0.107837565
25	0xbdd324de	-0.10309766
26	0xbc186a29	-0.009302654
27	0x3db60c33	0.088890456
28	0x3d434989	0.04767755
29	0xbd8a77fc	-0.067611665
30	0x3c05106d	0.008121592
31	0xbd75335a	-0.059863426
32	0x3de075a8	0.10959941
33	0xbc8c2427	-0.017107083
34	0xbd8f16ce	-0.069867715
35	0x3d532960	0.05155313
36	0xbdaa6461	-0.08319927
37	0x3da54a9f	0.080708735
38	0x3d82b6d7	0.0638253
39	0x3d8d35e9	0.06895048
40	0x3e03ca14	0.12870055
41	0xbdbddbbc	-0.09270427
42	0x3de51b74	0.11186877
43	0xbd9b10c3	-0.075715564
44	0xbdc4bf10	-0.09606755
45	0xb967c6ab	-0.00022103886
46	0x3cb273b0	0.02178368
47	0xbd2e4a0c	-0.042551085
48	0xbd3f1695	-0.046652395
49	0x3d629da4	0.05532612
50	0xbd986763	-0.074415945
51	0xbd12f1bc	-0.035875067
52	0xbda25c62	-0.07927777
53	0x3c0db012	0.008647935
54	0xbcbcf4de	-0.02306598
55	0xbda686ef	-0.08131205
56	0xbddfc85c	-0.109268874
57	0x3c402b60	0.011729091
58	0xbd2b4fcf	-0.04182416
59	0x3dd6e9a2	0.10493781
60	0xbd38a9c0	-0.04508376
61	0x3dbf3f0b	0.09338196
62	0xbdda5c0c	-0.10662088
63	0xbe02b636	-0.1276482

l3.weight f4 [1, 64]
0	0x3de75dbe	0.11297177
1	0x3c42d4a3	0.011891517
2	0x3d1cdf5b	0.038298946
3	0x3c42a92b	0.011881153
4	0x3de9e8d4	0.114213616
5	0xbdae3238	-0.08505672
6	0x3bfc3f40	0.0076979697
7	0xbe025546	-0.12727842
8	0xbde3c53a	-0.11121602
9	0xbd613b72	-0.054988332
10	0xbe0b296d	-0.13590021
11	0xbb4e656b	-0.0031493555
12	0x3dcb6b78	0.099326074
13	0xbdf89ef2	-0.121396914
14	0xbd6ec8ce	-0.05829697
15	0xbdcef67b	-0.10105606
16	0xbd550697	-0.052008238
17	0x3dc9b78d	0.09849463
18	0x3c74ea05	0.014948373
19	0xbd84061c	-0.06446478
20	0x3d9a54ab	0.075356804
21	0xbda049e7	-0.07826596
22	0xbd9457a8	-0.072432816
23	0xbd881c00	-0.066459656
24	0x3beb234b	0.007175838
25	0xbd25cc4b	-0.040478032
26	0xbdf087d4	-0.11744657
27	0x3caf382b	0.021389088
28	0xbb995beb	-0.004680147
29	0xbdd0655e	-0.10175584
30	0x3dd97511	0.10618032
31	0xbdcfde3f	-0.10149812
32	0xbd885787	-0.066573195
33	0x3dd654a7	0.10465365
34	0xbdc891f4	-0.09793463
35	0xbc8855ef	-0.016642539
36	0x3ce98856	0.028507393
37	0x3d8381f7	0.06421273
38	0xbd9a1224	-0.07522991
39	0xbc575168	-0.013141967
40	0xbd5709ce	-0.052499585
41	0x3d95b118	0.073091686
42	0x3a330f5a	0.00068305957
43	0x3d346c47	0.044048574
44	0x3d66f76d	0.056388307
45	0xbdf0ace7	-0.117517285
46	0xbd49da73	-0.049280595
47	0xbb6a12d6	-0.0035716793
48	0x3de3094d	0.11085758
49	0xbc43678e	-0.011926545
50	0xbd99b75c	-0.07505676
51	0xbd80d2e8	-0.06290227
52	0xbd8e1fa2	-0.06939627
53	0x3d60061d	0.05469333
54	0xbb7baa6f	-0.0038401147
55	0x3dcb8eee	0.09939371
56	0x3dd5b8cf	0.1043564
57	0xbb214bc0	-0.00246118
58	0xbc9f6e4c	-0.019461773
59	0x3dc0a25f	0.0940597
60	0x3dc8c222	0.09802653
61	0x3dd5280a	0.104080275
62	0x3d0f0b80	0.034923077
63	0xbd3f6f5a	-0.046737053

exp_avg f4 [64, 6]
0	0xc0695fa8	-3.6464634
1	0xbcbe7437	-0.023248775
2	0x3f31a268	0.6938844
3	0xbca6e455	-0.02037255
4	0xbf47aed4	-0.7800114
5	0xbc8dcd46	-0.017309796
6	0x3fadaabe	1.3567731
7	0x00000000	0.0
8	0x00000000	0.0
9	0x3b200eaa	0.0024422803
10	0x3f7050f2	0.9387351
11	0x00000000	0.0
12	0xbb8846e4	-0.0041588414
13	0x00000000	0.0
14	0x00000000	0.0
15	0x00000000	0.0
16	0x00000000	0.0
17	0xbc8792fa	-0.016549576
18	0xbc657826	-0.014005696
19	0xbc4b3b7a	-0.012404317
20	0x00000000	0.0
21	0xbb5b66b9	-0.0033477976
22	0x00000000	0.0
23	0xbc87a6dc	-0.016559057
24	0xbda18be0	-0.07888007
25	0x3c360c38	0.011111312
26	0xbe10d091	-0.14142062
27	0x00000000	0.0
28	0x00000000	0.0
29	0x00000000	0.0
30	0x3d460f56	0.04835447
31	0x00000000	0.0
32	0x00000000	0.0
33	0x3b1bc188	0.0023766477
34	0x3e978054	0.29590094
35	0x00000000	0.0
36	0x3e88b8aa	0.26703387
37	0x3cc9d924	0.024639674
38	0xbe6265b2	-0.22109106
39	0x3c5621ef	0.013069614
40	0x3fd4c1d7	1.6621655
41	0x00000000	0.0
42	0x40a313ba	5.096158
43	0x3cffc5fe	0.03122234
44	0x00000000	0.0
45	0x3cb8ce0a	0.022559185
46	0x00000000	0.0
47	0x3cdfe4f6	0.027330857
48	0xbc4ea05f	-0.012611478
49	0x00000000	0.0
50	0x00000000	0.0
51	0xbc3305f4	-0.010926712
52	0x00000000	0.0
53	0xbcae321b	-0.021264127
54	0x3e870a82	0.26375204
55	0x3c06ead6	0.0082347
56	0x3e949a2e	0.2902388
57	0x00000000	0.0
58	0x3f8fd44b	1.1236662
59	0x3c9fcdd4	0.019507326
60	0x3f308ec9	0.6896787
61	0x00000000	0.0
62	0xbdee5cf5	-0.11638824
63	0x00000000	0.0
64	0x00000000	0.0
65	0x00000000	0.0
66	0x3ec612cd	0.3868622
67	0x00000000	0.0
68	0x00000000	0.0
69	0xbc55ef3c	-0.013057526
70	0x00000000	0.0
71	0x00000000	0.0
72	0xbf97bc6a	-1.1854374
73	0xbc7fd8f3	-0.01561569
74	0x3f3b8a2b	0.732577
75	0x00000000	0.0
76	0x00000000	0.0
77	0xbce40b99	-0.027837561
78	0x00000000	0.0
79	0x00000000	0.0
80	0x00000000	0.0
81	0x00000000	0.0
82	0x00000000	0.0
83	0x00000000	0.0
84	0x3f022755	0.50841266
85	0x3b82d518	0.003992688
86	0x00000000	0.0
87	0x3abd43cd	0.0014439762
88	0xbd31dc7f	-0.043423172
89	0x00000000	0.0
90	0x3d7d69f9	0.06186864
91	0x00000000	0.0
92	0x00000000	0.0
93	0x3c5ef193	0.0136074005
94	0x3ec08310	0.37599993
95	0xbc781c89	-0.015143522
96	0x00000000	0.0
97	0x00000000	0.0
98	0x00000000	0.0
99	0x00000000	0.0
100	0x00000000	0.0
101	0x00000000	0.0
102	0x00000000	0.0
103	0x00000000	0.0
104	0x00000000	0.0
105	0x00000000	0.0
106	0x00000000	0.0
107	0x00000000	0.0
108	0xbe0f403c	-0.13989347
109	0x00000000	0.0
110	0x3e45b68d	0.19307919
111	0x00000000	0.0
112	0x00000000	0.0
113	0x00000000	0.0
114	0xbf471322	-0.7776357
115	0xbc0a2149	-0.008430787
116	0x3de1194a	0.10991152
117	0x3c12868b	0.00894321
118	0xbf323506	-0.6961216
119	0xbb7e302a	-0.0038786032
120	0x4023c78b	2.5590541
121	0xbb225939	-0.002477242
122	0xbe1babdb	-0.15202276
123	0x3b07405c	0.0020637726
124	0xbe026063	-0.12732081
125	0xbb626f54	-0.003455122
126	0xbe682b77	-0.2267283
127	0x00000000	0.0
128	0xbec651f2	-0.38734394
129	0x3c460b85	0.012087707
130	0x00000000	0.0
131	0x00000000	0.0
132	0x4050f1e1	3.264763
133	0x3b08b40b	0.0020859267
134	0xbe1bca2c	-0.15213841
135	0x3c472751	0.01215537
136	0x00000000	0.0
137	0x3bac6613	0.0052611916
138	0x00000000	0.0
139	0x00000000	0.0
140	0x00000000	0.0
141	0x00000000	0.0
142	0x00000000	0.0
143	0x00000000	0.0
144	0x39cad372	0.0003868598
145	0x00000000	0.0
146	0x00000000	0.0
147	0x00000000	0.0
148	0x00000000	0.0
149	0x3ad807c4	0.0016481807
150	0x3e3aa64e	0.18227503
151	0x00000000	0.0
152	0x00000000	0.0
153	0x00000000	0.0
154	0x3f96349e	1.1734807
155	0x00000000	0.0
156	0xbbc406c7	-0.0059822532
157	0xbbca61f2	-0.006176227
158	0xbdd482c8	-0.10376507
159	0x00000000	0.0
160	0x3eb7d757	0.3590648
161	0xbb89150a	-0.0041834163
162	0x00000000	0.0
163	0x00000000	0.0
164	0x00000000	0.0
165	0x00000000	0.0
166	0x00000000	0.0
167	0x00000000	0.0
168	0xbf6d65d7	-0.9273352
169	0xbc6f5998	-0.014608763
170	0x00000000	0.0
171	0xbc6d7079	-0.014492148
172	0xbd9d84db	-0.07691356
173	0x00000000	0.0
174	0xbe19f694	-0.15035468
175	0x00000000	0.0
176	0xbe84b355	-0.2591807
177	0x00000000	0.0
178	0x00000000	0.0
179	0x3cc9b47d	0.024622196
180	0xc0015eb2	-2.0214047
181	0xbc0be35e	-0.008538095
182	0x3ea613da	0.3243702
183	0xbbadf81a	-0.005309117
184	0xbf5182e2	-0.81840336
185	0xbc330d47	-0.0109284585
186	0xbf5468c5	-0.82972366
187	0x3c06fd19	0.008239054
188	0x3d59a99b	0.053140264
189	0x00000000	0.0
190	0xbd92fd3b	-0.07177206
191	0x3bdb9360	0.006700918
192	0xbc04b0fe	-0.008098839
193	0x00000000	0.0
194	0x00000000	0.0
195	0xbc4da6b8	-0.012551956
196	0x00000000	0.0
197	0x00000000	0.0
198	0xbfa5f23d	-1.296455
199	0xbc572733	-0.013131904
200	0x3ee803ca	0.4531539
201	0xbcbef2d3	-0.023309147
202	0x00000000	0.0
203	0xbbc30bf6	-0.0059523536
204	0xbfb61e30	-1.4227962
205	0xbc252083	-0.010078552
206	0x00000000	0.0
207	0xbadd3852	-0.0016877747
208	0xbf44bb73	-0.76848525
209	0x00000000	0.0
210	0x3f1a56db	0.6028878
211	0xbc451862	-0.012029739
212	0xbe107ba0	-0.14109659
213	0x3bab4037	0.005226161
214	0x00000000	0.0
215	0x00000000	0.0
216	0xbaa542e5	-0.0012608437
217	0x00000000	0.0
218	0x00000000	0.0
219	0xba1ce544	-0.0005985091
220	0xbe934ee4	-0.28771126
221	0x3a4e842e	0.00078779727
222	0xbfdd2ddb	-1.7279619
223	0xbc55d37b	-0.013050909
224	0x3e1dfebb	0.15429203
225	0xbc7d4748	-0.015458889
226	0x00000000	0.0
227	0xbc069bbd	-0.008215842
228	0x3f1e9200	0.6194153
229	0x3bdfe2b1	0.0068324436
230	0x00000000	0.0
231	0x3b5e7857	0.003394624
232	0x3f2e6af6	0.6813196
233	0xbbafd5f3	-0.005366081
234	0xbf66872a	-0.90049994
235	0x00000000	0.0
236	0x3f0093ec	0.5022571
237	0xbb97e67a	-0.0046356292
238	0xbd1d3509	-0.038380656
239	0x00000000	0.0
240	0x3e01b7d6	0.12667784
241	0x00000000	0.0
242	0x3e6e9f9c	0.23303074
243	0x00000000	0.0
244	0xbdd692b2	-0.10477199
245	0x00000000	0.0
246	0x00000000	0.0
247	0x00000000	0.0
248	0x00000000	0.0
249	0x00000000	0.0
250	0x00000000	0.0
251	0x00000000	0.0
252	0xc0db7726	-6.8582945
253	0x00000000	0.0
254	0x3f1b7eb8	0.6074023
255	0xbd0dcf43	-0.03462149

exp_avg_sq f4 [64, 6]
0	0x4074a01a	3.8222718
1	0x386ef82f	5.697476e-05
2	0x3c317620	0.010831386
3	0x38ab60b8	8.171931e-05
4	0x3f170744	0.5899546
5	0x38036025	3.1322375e-05
6	0x3dd24fc3	0.102691196
7	0x00000000	0.0
8	0x00000000	0.0
9	0x359eb1a5	1.1823619e-06
10	0x3f212d53	0.62959784
11	0x00000000	0.0
12	0x35f49b55	1.8224624e-06
13	0x00000000	0.0
14	0x00000000	0.0
15	0x00000000	0.0
16	0x00000000	0.0
17	0x37ef1f20	2.8505514e-05
18	0x3737b27e	1.0949208e-05
19	0x37882748	1.6230755e-05
20	0x00000000	0.0
21	0x3609e831	2.0549744e-06
22	0x00000000	0.0
23	0x380272dc	3.1101386e-05
24	0x394dfc13	0.00019644228
25	0x375b72b1	1.3080121e-05
26	0x3a1eaa0c	0.00060525606
27	0x00000000	0.0
28	0x00000000	0.0
29	0x00000000	0.0
30	0x3ad2b173	0.0016074613
31	0x00000000	0.0
32	0x00000000	0.0
33	0x35964c92	1.1198156e-06
34	0x3d63690e	0.05552011
35	0x00000000	0.0
36	0x3ea627ef	0.32452342
37	0x38862364	6.39621e-05
38	0x3a8f4d8a	0.0010933143
39	0x37a11b6d	1.9205467e-05
40	0x40087884	2.1323557
41	0x00000000	0.0
42	0x40ac7ecb	5.3904777
43	0x38d75f30	0.00010269729
44	0x00000000	0.0
45	0x38bc8867	8.9899455e-05
46	0x00000000	0.0
47	0x38a2d5dd	7.764597e-05
48	0x378f98af	1.7118027e-05
49	0x00000000	0.0
50	0x00000000	0.0
51	0x375b536e	1.3072842e-05
52	0x00000000	0.0
53	0x3857e061	5.1468964e-05
54	0x3e136c07	0.14396678
55	0x36f1d2d5	7.206904e-06
56	0x3b4279b0	0.0029674582
57	0x00000000	0.0
58	0x3f880ce6	1.0628936
59	0x382ff154	4.1948006e-05
60	0x3f19b51b	0.6004197
61	0x00000000	0.0
62	0x39bfd30a	0.00036587595
63	0x00000000	0.0
64	0x00000000	0.0
65	0x00000000	0.0
66	0x3d4c59a0	0.04989016
67	0x00000000	0.0
68	0x00000000	0.0
69	0x379ded8d	1.8826477e-05
70	0x00000000	0.0
71	0x00000000	0.0
72	0x40ae5b78	5.4486656
73	0x37d771db	2.5683015e-05
74	0x3c5687fb	0.013093944
75	0x00000000	0.0
76	0x00000000	0.0
77	0x38ab5a39	8.170721e-05
78	0x00000000	0.0
79	0x00000000	0.0
80	0x00000000	0.0
81	0x00000000	0.0
82	0x00000000	0.0
83	0x00000000	0.0
84	0x3c43788b	0.011930595
85	0x35ea87ea	1.7473915e-06
86	0x00000000	0.0
87	0x36f75b66	7.371814e-06
88	0x3b4ce7fc	0.0031266203
89	0x00000000	0.0
90	0x3b4cc35f	0.003124438
91	0x00000000	0.0
92	0x00000000	0.0
93	0x38c772ab	9.510418e-05
94	0x3ddb0210	0.10693753
95	0x37d984f4	2.5930327e-05
96	0x00000000	0.0
97	0x00000000	0.0
98	0x00000000	0.0
99	0x00000000	0.0
100	0x00000000	0.0
101	0x00000000	0.0
102	0x00000000	0.0
103	0x00000000	0.0
104	0x00000000	0.0
105	0x00000000	0.0
106	0x00000000	0.0
107	0x00000000	0.0
108	0x3da2e099	0.07952995
109	0x00000000	0.0
110	0x3a6dfe5d	0.00090787356
111	0x00000000	0.0
112	0x00000000	0.0
113	0x00000000	0.0
114	0x3deea8eb	0.11653312
115	0x36fce47e	7.5367852e-06
116	0x39b4c1be	0.00034476625
117	0x395220c5	0.00020039368
118	0x3ebd46da	0.36968118
119	0x365e248d	3.3101853e-06
120	0x3fa89fe0	1.317379
121	0x3532f35c	6.66643e-07
122	0x3a7190df	0.0009215008
123	0x35462890	7.3819774e-07
124	0x3c3872cd	0.011257839
125	0x361d2041	2.3413597e-06
126	0x3a89cb82	0.001051292
127	0x00000000	0.0
128	0x3b46b8dc	0.0030322587
129	0x37972add	1.8020562e-05
130	0x00000000	0.0
131	0x00000000	0.0
132	0x401ca550	2.4475899
133	0x34fbea87	4.6923034e-07
134	0x3a7e8342	0.000970889
135	0x38a4e721	7.8631805e-05
136	0x00000000	0.0
137	0x367e740d	3.79165e-06
138	0x00000000	0.0
139	0x00000000	0.0
140	0x00000000	0.0
141	0x00000000	0.0
142	0x00000000	0.0
143	0x00000000	0.0
144	0x3285a77d	1.5559403e-08
145	0x00000000	0.0
146	0x00000000	0.0
147	0x00000000	0.0
148	0x00000000	0.0
149	0x3497ef31	2.8299976e-07
150	0x3cefad56	0.029257458
151	0x00000000	0.0
152	0x00000000	0.0
153	0x00000000	0.0
154	0x3f8001c1	1.0000535
155	0x00000000	0.0
156	0x3abc771f	0.0014378763
157	0x3687b85f	4.044777e-06
158	0x39bd86d6	0.0003614935
159	0x00000000	0.0
160	0x3d5a962e	0.05336588
161	0x35feac48	1.8974615e-06
162	0x00000000	0.0
163	0x00000000	0.0
164	0x00000000	0.0
165	0x00000000	0.0
166	0x00000000	0.0
167	0x00000000	0.0
168	0x3f647bf5	0.89251643
169	0x37bcd246	2.2509263e-05
170	0x00000000	0.0
171	0x389e92a2	7.5613396e-05
172	0x3c818b03	0.015813356
173	0x00000000	0.0
174	0x39efcdcb	0.0004573896
175	0x00000000	0.0
176	0x3ab0d988	0.0013492564
177	0x00000000	0.0
178	0x00000000	0.0
179	0x3888be6c	6.520454e-05
180	0x3f16f466	0.5896667
181	0x370169ec	7.713661e-06
182	0x3b1d2389	0.002397748
183	0x366f8456	3.5690805e-06
184	0x3f1420b7	0.5786242
185	0x375691c5	1.2789334e-05
186	0x3ec27c93	0.37985668
187	0x36f74524	7.3692227e-06
188	0x398539f5	0.00025410918
189	0x00000000	0.0
190	0x3bb9e7e6	0.0056733964
191	0x370d0bc7	8.406997e-06
192	0x36f93967	7.427461e-06
193	0x00000000	0.0
194	0x00000000	0.0
195	0x3797487d	1.8034358e-05
196	0x00000000	0.0
197	0x00000000	0.0
198	0x3f891c4f	1.0711764
199	0x379852e5	1.8158413e-05
200	0x3b9b6ec8	0.0047434308
201	0x3924b8f6	0.00015709162
202	0x00000000	0.0
203	0x368e8715	4.2476554e-06
204	0x3e5955d6	0.2122415
205	0x373433e6	1.074092e-05
206	0x00000000	0.0
207	0x34bc9dc9	3.5132533e-07
208	0x3f25e770	0.6480627
209	0x00000000	0.0
210	0x3f326269	0.6968141
211	0x37800ad2	1.5263828e-05
212	0x3a0a9c85	0.00052876055
213	0x37d62333	2.5527179e-05
214	0x00000000	0.0
215	0x00000000	0.0
216	0x3d6c6fc1	0.057723764
217	0x00000000	0.0
218	0x00000000	0.0
219	0x3735d9f9	1.0839191e-05
220	0x3ddc20d1	0.10748447
221	0x33963d13	6.996029e-08
222	0x3f871f3b	1.0556406
223	0x3798546e	1.8159128e-05
224	0x3a82ce40	0.000997968
225	0x38e15e47	0.000107463966
226	0x00000000	0.0
227	0x36eb7926	7.0176493e-06
228	0x3ef8451a	0.4849022
229	0x36abd604	5.121112e-06
230	0x00000000	0.0
231	0x38181e2d	3.6267727e-05
232	0x3eca9c85	0.3957254
233	0x368f7c40	4.2761967e-06
234	0x3eb58a7d	0.3545722
235	0x00000000	0.0
236	0x3bb9bdcb	0.005668377
237	0x3658f07f	3.2326495e-06
238	0x39af61b7	0.00033451404
239	0x00000000	0.0
240	0x3b1c9140	0.0023890287
241	0x00000000	0.0
242	0x3b13a1b8	0.0022526812
243	0x00000000	0.0
244	0x3d3ed232	0.046587177
245	0x00000000	0.0
246	0x00000000	0.0
247	0x00000000	0.0
248	0x00000000	0.0
249	0x00000000	0.0
250	0x00000000	0.0
251	0x00000000	0.0
252	0x411e09fb	9.877437
253	0x00000000	0.0
254	0x3c27702c	0.010219615
255	0x39c9d169	0.0003849373

exp_avg f4 [64]
0	0x3fb59b53	1.4188026
1	0x3fb87f81	1.4413911
2	0xbc879a68	-0.016553119
3	0xbd0454b9	-0.03230736
4	0xbe057155	-0.13031514
5	0x3e98c02f	0.29834124
6	0xbfc97406	-1.5738533
7	0x3ed2ac2e	0.41146988
8	0xbd03ddeb	-0.03219406
9	0x3f80d8f5	1.006621
10	0x3f3880ac	0.7207134
11	0x3f181219	0.59402615
12	0xbfa5f853	-1.2966408
13	0x00000000	0.0
14	0x3f617403	0.88067645
15	0x3ebfb4f3	0.3744274
16	0x00000000	0.0
17	0x00000000	0.0
18	0xbda02a48	-0.078205645
19	0x3dc788a6	0.097428605
20	0x3f396795	0.7242368
21	0xbec02164	-0.37525475
22	0x3ed73a3e	0.42036623
23	0x00000000	0.0
24	0x3ad80e25	0.0016483708
25	0x3f962576	1.1730182
26	0x3e7ad220	0.24494219
27	0x00000000	0.0
28	0xc00869a7	-2.1314485
29	0xbe703366	-0.23457107
30	0x3fc15f63	1.5107235
31	0xbf72b50e	-0.9480752
32	0xbc4da0fc	-0.012550589
33	0xc08b340f	-4.350105
34	0xbeaca7b1	-0.33721688
35	0x3f0fcf22	0.56175435
36	0x3ff6968d	1.9264694
37	0x3fb3a30a	1.403413
38	0x3e097354	0.134229
39	0x3d7acf73	0.061232995
40	0x3e036ceb	0.12834518
41	0x00000000	0.0
42	0xc01ee83f	-2.4829252
43	0xbf4d53f8	-0.8020625
44	0x3fa34e94	1.2758355
45	0x00000000	0.0
46	0x00000000	0.0
47	0x00000000	0.0
48	0x3e8f5529	0.2799466
49	0x00000000	0.0
50	0x3c252748	0.010080166
51	0xbf022d42	-0.5085031
52	0xb7567644	-1.278293e-05
53	0x3a9f7083	0.0012164268
54	0x3ebf398b	0.3734859
55	0x3f1341c7	0.57522243
56	0x00000000	0.0
57	0x3fa5e665	1.2960936
58	0x00000000	0.0
59	0x3eb063d8	0.34451175
60	0xbf96f440	-1.1793289
61	0x00000000	0.0
62	0x00000000	0.0
63	0xbf4b0070	-0.7929754

exp_avg_sq f4 [64]
0	0x3fa91e1b	1.3212312
1	0x3f039699	0.5140167
2	0x37ef3a0c	2.851805e-05
3	0x38802381	6.110129e-05
4	0x3a0d62fd	0.00053934735
5	0x3d637e77	0.05554053
6	0x404ad1d0	3.169056
7	0x40b1003f	5.53128
8	0x38ea2b9f	0.000111661146
9	0x3faa436a	1.3301823
10	0x4014374f	2.3158758
11	0x3df867be	0.12129162
12	0x41077ddd	8.468228
13	0x00000000	0.0
14	0x3eb72387	0.35769293
15	0x3ddb1dda	0.10699053
16	0x00000000	0.0
17	0x00000000	0.0
18	0x3db3964a	0.087689
19	0x3f86e3d0	1.0538273
20	0x4002e1fb	2.0450428
21	0x3b3c4a15	0.002873068
22	0x3fe31668	1.7741213
23	0x00000000	0.0
24	0x3497f7b1	2.830616e-07
25	0x3f7fdd3d	0.9994696
26	0x3d510ea1	0.05103934
27	0x00000000	0.0
28	0x40306baa	2.7565713
29	0x3a9771ef	0.0011554341
30	0x3f12fd22	0.574175
31	0x3f0a4c46	0.54022634
32	0x37974249	1.803147e-05
33	0x402f106c	2.7353773
34	0x3f52e281	0.8237687
35	0x3f430991	0.7618647
36	0x3f56ae5b	0.83859795
37	0x3fc40268	1.5313234
38	0x3f898f94	1.0746942
39	0x3edc2149	0.42994145
40	0x3d4c423e	0.04986786
41	0x00000000	0.0
42	0x3fa7045e	1.3048208
43	0x3f0fbf6b	0.56151456
44	0x3f33c60b	0.70224065
45	0x00000000	0.0
46	0x00000000	0.0
47	0x00000000	0.0
48	0x3f3b5193	0.7317135
49	0x00000000	0.0
50	0x38390809	4.411492e-05
51	0x3baeb04c	0.005331075
52	0x40eaebe6	7.341296
53	0x34b1f67f	3.314817e-07
54	0x3eb2ba6f	0.34907863
55	0x3e6b5ed6	0.22985396
56	0x00000000	0.0
57	0x3f8e6441	1.1124345
58	0x00000000	0.0
59	0x3b8f8e37	0.004380967
60	0x3f9f6736	1.2453372
61	0x00000000	0.0
62	0x00000000	0.0
63	0x3facabcd	1.348993

exp_avg f4 [64, 64]
0	0x3fdf350f	1.7438067
1	0xbf360783	-0.7110521
2	0x3bbca99b	0.0057575232
3	0x3c88f9ec	0.016720735
4	0x3bd5e7c2	0.006527872
5	0x3ef5ad95	0.47983995
6	0xc01887f4	-2.383298
7	0xc04e16ae	-3.2201343
8	0x3b4a66b5	0.0030883972
9	0xc044e64d	-3.0765564
10	0xc0463450	-3.096943
11	0xbbf851e1	-0.00757812
12	0x3ca80139	0.020508396
13	0x00000000	0.0
14	0xbfe4a0b2	-1.786154
15	0x3ead7796	0.338803
16	0x00000000	0.0
17	0x00000000	0.0
18	0x00000000	0.0
19	0x3f28daa5	0.65958625
20	0xbf937934	-1.1521363
21	0x394fca45	0.0001981641
22	0xbfc6bb7d	-1.5525967
23	0x00000000	0.0
24	0x3a0f343a	0.00054627995
25	0x3d10ce5b	0.035353046
26	0x3fa558cb	1.2917722
27	0x00000000	0.0
28	0x3f0e8300	0.5566864
29	0x3b6b3fbf	0.003589615
30	0x3fb82759	1.4387008
31	0x3fc16604	1.5109258
32	0x39abe096	0.0003278299
33	0x3e239826	0.15976009
34	0x3f36f636	0.7146944
35	0x3c687e91	0.014190332
36	0xc0033ffd	-2.0507805
37	0xc0746637	-3.8187387
38	0x3f2bd4bd	0.6712149
39	0xbe6ed553	-0.23323564
40	0x3f1518be	0.5824088
41	0x00000000	0.0
42	0xbff339c0	-1.9001999
43	0xbf876fd0	-1.0580997
44	0x3fb3bdf3	1.4042343
45	0x00000000	0.0
46	0x00000000	0.0
47	0x00000000	0.0
48	0x3fba014f	1.4531649
49	0x00000000	0.0
50	0x3b9eff85	0.0048522376
51	0x38c1c279	9.2391805e-05
52	0xbf9eee52	-1.241648
53	0x3b11c9b3	0.0022245466
54	0xbfb9cb2a	-1.4515126
55	0x3e8b06cd	0.27153626
56	0x00000000	0.0
57	0x3ecc59d2	0.39912277
58	0x00000000	0.0
59	0x00000000	0.0
60	0xbfbd322d	-1.4780937
61	0x00000000	0.0
62	0x00000000	0.0
63	0xbebdb18d	-0.37049523
64	0x3da6e201	0.081485756
65	0x3e67e97b	0.2264766
66	0x3a23d1c2	0.0006249213
67	0x3acf4133	0.0015812278
68	0xbcf51e6b	-0.029921731
69	0x3d82f05a	0.063935
70	0x3e86eedb	0.26354107
71	0xbd7eaa7e	-0.062174313
72	0x39d21d2a	0.0004007605
73	0x3e1604ec	0.14650315
74	0xbd08355b	-0.03325401
75	0xbcd4773e	-0.025935765
76	0xbd4a5410	-0.049396574
77	0x00000000	0.0
78	0x399c8e69	0.00029860743
79	0x3d392292	0.045198984
80	0x00000000	0.0
81	0x00000000	0.0
82	0xbbdb6461	-0.0066953157
83	0xbc91ee35	-0.017813781
84	0xbbed4fff	-0.0072422023
85	0xbca2bc35	-0.019865135
86	0xbe0655a0	-0.13118601
87	0x00000000	0.0
88	0x3878c12c	5.9307713e-05
89	0x3b9da7fa	0.004811284
90	0x3e0d2a38	0.13785636
91	0x00000000	0.0
92	0x3c80bedf	0.015716014
93	0xbc6ea173	-0.01456486
94	0x3df555e7	0.11979275
95	0x3da72c9e	0.08162807
96	0x381860af	3.6329668e-05
97	0xbd3609ab	-0.044442814
98	0x3ddf88fc	0.109147996
99	0xbd033c1b	-0.032039743
100	0x3e9b4c54	0.3033167
101	0xbd95509a	-0.07290764
102	0xbd20778e	-0.039176516
103	0xbcb5ef39	-0.022208797
104	0x3d9cde7a	0.076596215
105	0x00000000	0.0
106	0x3c45cb84	0.012072448
107	0x3d2520f2	0.040314622
108	0x3e20e75b	0.15713255
109	0x00000000	0.0
110	0x00000000	0.0
111	0x00000000	0.0
112	0x3cbf43dc	0.023347788
113	0x00000000	0.0
114	0x39c81f05	0.00038170084
115	0xbbd22276	-0.0064127995
116	0xbe0d1054	-0.1377576
117	0x39068564	0.00012828928
118	0xbcd3d3fe	-0.025857922
119	0x3d12d1de	0.035844676
120	0x00000000	0.0
121	0x3d595bfb	0.053066235
122	0x00000000	0.0
123	0xbc408264	-0.011749838
124	0x3ca95cb1	0.020674082
125	0x00000000	0.0
126	0x00000000	0.0
127	0x3d23daaf	0.040003475
128	0x3ebcb021	0.36853126
129	0xbe4699ac	-0.19394559
130	0x00000000	0.0
131	0x00000000	0.0
132	0x00000000	0.0
133	0x3e10e834	0.14151078
134	0xbf24fadd	-0.64445287
135	0xbf7eb452	-0.99493897
136	0x00000000	0.0
137	0xbf562287	-0.83646435
138	0xbf5e2537	-0.86775535
139	0xbdc24a0b	-0.09486779
140	0xbd8991a2	-0.067172304
141	0x00000000	0.0
142	0xbf0b9bac	-0.5453441
143	0x3dc860a9	0.097840615
144	0x00000000	0.0
145	0x00000000	0.0
146	0x36772a48	3.683048e-06
147	0x3c05464d	0.008134437
148	0xbef2688a	-0.47345382
149	0x00000000	0.0
150	0xbf147320	-0.57988167
151	0x00000000	0.0
152	0x00000000	0.0
153	0x3c27d531	0.0102437
154	0x3ec3efe1	0.3826895
155	0x00000000	0.0
156	0xbb14ede6	-0.0022724806
157	0x00000000	0.0
158	0x3e4e1a11	0.20127131
159	0x3eb4075b	0.35161862
160	0x00000000	0.0
161	0xbd683623	-0.056692254
162	0x3e04b2f1	0.12958886
163	0xba8c324b	-0.0010696141
164	0xbf0f7294	-0.5603421
165	0xbf92b709	-1.1462108
166	0x3d5e6978	0.0542998
167	0xbdd3f308	-0.10349089
168	0x3e32821c	0.17432445
169	0x00000000	0.0
170	0xbf12b70a	-0.57310545
171	0xbebfa739	-0.37432268
172	0x3ebfef7e	0.37487406
173	0x00000000	0.0
174	0x00000000	0.0
175	0x00000000	0.0
176	0x3e635fb3	0.22204475
177	0x00000000	0.0
178	0x00000000	0.0
179	0x00000000	0.0
180	0xbf11cd3d	-0.56953794
181	0x00000000	0.0
182	0xbeef3332	-0.46718746
183	0x3da101b8	0.07861656
184	0x00000000	0.0
185	0x3df2e1e5	0.11859492
186	0x00000000	0.0
187	0x00000000	0.0
188	0xbf0c278b	-0.5474784
189	0x00000000	0.0
190	0x00000000	0.0
191	0xbdfe15de	-0.124065146
192	0x3ee8dc68	0.45480657
193	0xbe16634e	-0.14686319
194	0x3a2cf4aa	0.0006597737
195	0x3b3409e2	0.002747171
196	0xbd2521ab	-0.04031531
197	0x3d813225	0.063083924
198	0xbebbd156	-0.36683148
199	0xbe788661	-0.24270011
200	0x3a0c9de2	0.00053641025
201	0xbefd20b6	-0.4943902
202	0xbee00fad	-0.4376196
203	0x3dc6f074	0.097138315
204	0x3c50c044	0.012741152
205	0x00000000	0.0
206	0xbe895b53	-0.26827487
207	0x3d394529	0.045231972
208	0x00000000	0.0
209	0x00000000	0.0
210	0x3bdfe9de	0.006833299
211	0x3eed3cad	0.46335354
212	0x3e04329f	0.12909935
213	0xbcd3557e	-0.025797602
214	0xbb9f1814	-0.0048551653
215	0x00000000	0.0
216	0x388542c1	6.354368e-05
217	0x3b9b7138	0.0047437213
218	0x3df8ec66	0.121544644
219	0x00000000	0.0
220	0x3e6f1c47	0.2335063
221	0xbc99c87d	-0.018772358
222	0x3f06c647	0.526463
223	0x3eb311e9	0.34974602
224	0x381da6e2	3.758714e-05
225	0x3dd6346a	0.10459216
226	0x3e93d043	0.2886983
227	0xbce11701	-0.02747679
228	0xbe6c217e	-0.23059651
229	0xbedb923e	-0.4288501
230	0x3ec61812	0.3869024
231	0x3c7c0bf3	0.015383708
232	0x3d96f7fa	0.073715165
233	0x00000000	0.0
234	0xbe818891	-0.25299504
235	0x3c14e1a1	0.009086997
236	0x3e804086	0.25049227
237	0x00000000	0.0
238	0x00000000	0.0
239	0x00000000	0.0
240	0x3eede40e	0.46463054
241	0x00000000	0.0
242	0x3a4ab8d2	0.0007733229
243	0xbbf9c09c	-0.007621838
244	0x3e6c8f29	0.23101486
245	0x3990593a	0.000275323
246	0xbdbd65de	-0.09247945
247	0x3d11af05	0.035567302
248	0x00000000	0.0
249	0x3d5575dd	0.052114356
250	0x00000000	0.0
251	0xbc897e4b	-0.016783854
252	0x3c8d19c4	0.0172242
253	0x00000000	0.0
254	0x00000000	0.0
255	0xbd948557	-0.07251995

exp_avg_sq f4 [64, 64]
0	0x3feafe95	1.8358942
1	0x3ff43a58	1.9080305
2	0x3667eea5	3.4560592e-06
3	0x3783e272	1.5721864e-05
4	0x369703c3	4.5005886e-06
5	0x3e36216f	0.17786191
6	0x40b90d34	5.7828617
7	0x40948b6f	4.6420207
8	0x3598d167	1.1385827e-06
9	0x4072f71d	3.7963326
10	0x400bb9b4	2.1832094
11	0x36b06f50	5.258167e-06
12	0x37c048ad	2.2922026e-05
13	0x00000000	0.0
14	0x3e604bbf	0.21903895
15	0x3dad9b68	0.08476907
16	0x00000000	0.0
17	0x00000000	0.0
18	0x00000000	0.0
19	0x3fe6b81d	1.8024937
20	0x4073ce37	3.8094614
21	0x31a6690b	4.843178e-09
22	0x4039bd96	2.9021964
23	0x00000000	0.0
24	0x330b0d61	3.2375628e-08
25	0x3abd0d04	0.0014423435
26	0x3fac280c	1.3449721
27	0x00000000	0.0
28	0x3e6b2c4e	0.2296612
29	0x35b3d19e	1.3397546e-06
30	0x40c799d8	6.2375298
31	0x3f347b91	0.7050105
32	0x3263b7d2	1.3254935e-08
33	0x3c87faec	0.016599141
34	0x3f9cd094	1.2251153
35	0x377078ff	1.4333286e-05
36	0x40b0ee79	5.5291104
37	0x40a2343a	5.0688753
38	0x3f3a9631	0.72885424
39	0x3e1d53c1	0.15363981
40	0x3e860c91	0.26181462
41	0x00000000	0.0
42	0x4018fdc5	2.3904889
43	0x3fd98fdc	1.6997027
44	0x3fa4674c	1.2844024
45	0x00000000	0.0
46	0x00000000	0.0
47	0x00000000	0.0
48	0x4050453b	3.2542255
49	0x00000000	0.0
50	0x35ed8676	1.7697009e-06
51	0x30dc195b	1.6014313e-09
52	0x40922eaf	4.5681987
53	0x350f0d2f	5.3290836e-07
54	0x3f9a5347	1.2056664
55	0x3d742454	0.059604958
56	0x00000000	0.0
57	0x3dfba16c	0.12286648
58	0x00000000	0.0
59	0x00000000	0.0
60	0x408eed10	4.4664383
61	0x00000000	0.0
62	0x00000000	0.0
63	0x3f310d54	0.6916096
64	0x3cff2d76	0.031149607
65	0x3d127a66	0.03576126
66	0x332ee85a	4.0723855e-08
67	0x3459feb8	2.0302366e-07
68	0x37b242dd	2.125039e-05
69	0x3b363dfd	0.0027807944
70	0x3da1d098	0.07901114
71	0x38d4f6ca	0.00010154916
72	0x32a3b819	1.9059415e-08
73	0x3cf2926c	0.029610835
74	0x37d4d457	2.5371248e-05
75	0x37909f15	1.7240216e-05
76	0x386d46a0	5.6570978e-05
77	0x00000000	0.0
78	0x338db881	6.599385e-08
79	0x3aadbabf	0.0013254507
80	0x00000000	0.0
81	0x00000000	0.0
82	0x35951b03	1.1109227e-06
83	0x3bf89e4e	0.0075872308
84	0x3c503edd	0.0127103
85	0x371915ab	9.124556e-06
86	0x39d6ce17	0.0004097081
87	0x00000000	0.0
88	0x2fd1f88b	3.819348e-10
89	0x37bd3b6a	2.2558223e-05
90	0x3ca8137e	0.020517107
91	0x00000000	0.0
92	0x3b5143da	0.0031931312
93	0x36a41277	4.8897305e-06
94	0x3db7f284	0.08981803
95	0x3c4f425f	0.012650101
96	0x2f2c41f2	1.5666737e-10
97	0x384157e8	4.6096655e-05
98	0x3ca516f6	0.02015255
99	0x37dc0787	2.6229549e-05
100	0x3d9f7e65	0.0778778
101	0x39085100	0.00013000146
102	0x3a92ef40	0.0011210218
103	0x3938bf7b	0.0001761894
104	0x3b85cbdd	0.0040831403
105	0x00000000	0.0
106	0x3c4343c6	0.011918014
107	0x3bf8ff7c	0.0075988155
108	0x3cb7dfca	0.022445578
109	0x00000000	0.0
110	0x00000000	0.0
111	0x00000000	0.0
112	0x3d2c65ce	0.042089276
113	0x00000000	0.0
114	0x3263e725	1.3265695e-08
115	0x3570e7a3	8.9744043e-07
116	0x39f4a994	0.00046665652
117	0x31143294	2.1565585e-09
118	0x3928ad44	0.00016086275
119	0x3a736ba1	0.00092857523
120	0x00000000	0.0
121	0x3afbcb56	0.0019210379
122	0x00000000	0.0
123	0x366b9f2f	3.5110386e-06
124	0x3cb1f974	0.021725394
125	0x00000000	0.0
126	0x00000000	0.0
127	0x3c1ddac7	0.00963468
128	0x3e055c37	0.13023458
129	0x3e191635	0.14949878
130	0x00000000	0.0
131	0x00000000	0.0
132	0x00000000	0.0
133	0x3c754bca	0.014971683
134	0x3ec392e4	0.38198006
135	0x3eab4b3a	0.3345583
136	0x00000000	0.0
137	0x3e7ba76c	0.24575585
138	0x3e1fd665	0.15609129
139	0x3952e446	0.00020112199
140	0x38cdb641	9.809109e-05
141	0x00000000	0.0
142	0x3c97689c	0.018482499
143	0x3be9e8fd	0.00713837
144	0x00000000	0.0
145	0x00000000	0.0
146	0x2d93cc76	1.6802764e-11
147	0x3df4a417	0.1194536
148	0x3e7f0065	0.24902494
149	0x00000000	0.0
150	0x3e5932d8	0.21210802
151	0x00000000	0.0
152	0x00000000	0.0
153	0x38fec8c7	0.000121490615
154	0x3de6ffaa	0.11279233
155	0x00000000	0.0
156	0x3c94f0ce	0.01818123
157	0x00000000	0.0
158	0x3ed437a5	0.41448703
159	0x3d5b0e52	0.053480454
160	0x00000000	0.0
161	0x3ab1d8fa	0.0013568692
162	0x3daba6fa	0.083814576
163	0x3336072c	4.23817e-08
164	0x3ebc78a4	0.36810791
165	0x3ebaa94a	0.36457282
166	0x3d522824	0.051307812
167	0x3c2a99c1	0.010412634
168	0x3cb46d7c	0.022024862
169	0x00000000	0.0
170	0x3e1be625	0.15224512
171	0x3dde8030	0.108642936
172	0x3dd5faab	0.10448202
173	0x00000000	0.0
174	0x00000000	0.0
175	0x00000000	0.0
176	0x3e5b64db	0.21425192
177	0x00000000	0.0
178	0x00000000	0.0
179	0x00000000	0.0
180	0x3eac0b3c	0.3360232
181	0x00000000	0.0
182	0x3dad0c44	0.08449605
183	0x3ba32261	0.0049784635
184	0x00000000	0.0
185	0x3c296c69	0.010340788
186	0x00000000	0.0
187	0x00000000	0.0
188	0x3e920990	0.2852292
189	0x00000000	0.0
190	0x00000000	0.0
191	0x3d3c2f2a	0.045943417
192	0x3d2c49b7	0.042062487
193	0x3d28b3e1	0.04118717
194	0x3347a282	4.6481098e-08
195	0x35a00945	1.1923627e-06
196	0x38516e60	4.9932278e-05
197	0x3b46ce1f	0.003033526
198	0x3dae81f0	0.08520877
199	0x3ccd2a04	0.025044449
200	0x339b95dd	7.24501e-08
201	0x3d8ce105	0.068788566
202	0x3d10e5a6	0.03537526
203	0x3c514f3c	0.012775239
204	0x3be9e5ef	0.007138006
205	0x00000000	0.0
206	0x3bcad6b1	0.006190144
207	0x3abd62d7	0.0014449012
208	0x00000000	0.0
209	0x00000000	0.0
210	0x39a14503	0.0003075973
211	0x3d552e4c	0.052046105
212	0x3c06cc92	0.008227484
213	0x37953310	1.7785962e-05
214	0x3cac7dce	0.021056082
215	0x00000000	0.0
216	0x3000c028	4.68392e-10
217	0x37ce516f	2.4595034e-05
218	0x3cb96308	0.02263023
219	0x00000000	0.0
220	0x3d0b9e20	0.034086347
221	0x371ac73d	9.225504e-06
222	0x3d7b826c	0.061403677
223	0x3cb489d1	0.022038372
224	0x2f31b18f	1.6161138e-10
225	0x3c36da98	0.011160515
226	0x3c6505be	0.01397842
227	0x3982da81	0.0002495833
228	0x3d891acf	0.066945665
229	0x3d28dde7	0.041227248
230	0x3d25729a	0.040392496
231	0x3a5074fa	0.0007952001
232	0x3b925a60	0.00446634
233	0x00000000	0.0
234	0x3c2ad4b0	0.010426685
235	0x3904d138	0.00012666441
236	0x3cb2a988	0.021809354
237	0x00000000	0.0
238	0x00000000	0.0
239	0x00000000	0.0
240	0x3d542ccb	0.05180053
241	0x00000000	0.0
242	0x33b55d9d	8.4454975e-08
243	0x35a81b5f	1.2524941e-06
244	0x3d72bc86	0.05926182
245	0x32103068	8.3929095e-09
246	0x3b98ab25	0.004659074
247	0x3a8552d2	0.0010171777
248	0x00000000	0.0
249	0x3b096ab8	0.002096815
250	0x00000000	0.0
251	0x3728163d	1.0018758e-05
252	0x3a1e2e1f	0.0006034094
253	0x00000000	0.0
254	0x00000000	0.0
255	0x3b8c79ad	0.004286966

exp_avg f4 [64]
0	0xc082e207	-4.090091
1	0x3e0c620f	0.13709281
2	0xbfbab522	-1.4586527
3	0xb53f1c1d	-7.1193955e-07
4	0x407dc8ab	3.9653728
5	0x00000000	0.0
6	0x00000000	0.0
7	0x370af159	8.281634e-06
8	0x00000000	0.0
9	0xb60edab2	-2.1286946e-06
10	0xc118d182	-9.551149
11	0x3cdebe23	0.027190274
12	0x4135bb94	11.358295
13	0xbf99c32f	-1.201269
14	0xbead6645	-0.33867088
15	0xb737d892	-1.0958074e-05
16	0xbe8c4a68	-0.27400517
17	0xbd0ff8e6	-0.035149477
18	0xbe884c33	-0.26620635
19	0x00000000	0.0
20	0xbf72e883	-0.94886035
21	0xbd096a49	-0.033548627
22	0x3d36cd82	0.04462958
23	0x370dd719	8.454336e-06
24	0x3d624e97	0.05525073
25	0x36a74c64	4.985881e-06
26	0xbf192272	-0.59818184
27	0xb53cb17c	-7.029373e-07
28	0x34f491ec	4.5554714e-07
29	0xbfd3d5dc	-1.654964
30	0xc0698ea4	-3.649331
31	0x3774a1dd	1.458122e-05
32	0x368123d6	3.8486714e-06
33	0x3cd42a03	0.025898939
34	0xbf9d2524	-1.227696
35	0x361e4127	2.3581758e-06
36	0x3ea6fe5b	0.32615933
37	0xb723215d	-9.723325e-06
38	0x3505457a	4.964746e-07
39	0x331c4226	3.6381742e-08
40	0x363af2a2	2.785739e-06
41	0x00000000	0.0
42	0x3c95f790	0.018306524
43	0x3ca1f87c	0.019771807
44	0x40999951	4.7999654
45	0xc035782d	-2.83546
46	0xc0e30b45	-7.0951257
47	0x34636d58	2.1180801e-07
48	0x3dc25282	0.09488393
49	0x3b3831f3	0.0028105944
50	0x3fd99091	1.6997243
51	0x00000000	0.0
52	0x3611dbad	2.1734552e-06
53	0x3fa86942	1.3157122
54	0x3e80335e	0.2503919
55	0x3d828d2f	0.06374585
56	0x40543d88	3.3162556
57	0x00000000	0.0
58	0x3e214990	0.15750718
59	0xb6b67425	-5.4375437e-06
60	0x00000000	0.0
61	0x3686bb10	4.015288e-06
62	0x00000000	0.0
63	0x3e9ddbba	0.308317

exp_avg_sq f4 [64]
0	0x41f57380	30.681396
1	0x3e318d26	0.17339
2	0x3ffa36b5	1.9547945
3	0x2b04a29e	4.7121497e-13
4	0x414acaed	12.674542
5	0x00000000	0.0
6	0x00000000	0.0
7	0x2e3bc897	4.2697037e-11
8	0x00000000	0.0
9	0x2d357e2f	1.0316677e-11
10	0x4224258e	41.036674
11	0x3939f6c0	0.00017734896
12	0x41e58093	28.68778
13	0x415ce550	13.8059845
14	0x403b719b	2.928809
15	0x2dd7378c	2.4467338e-11
16	0x4073a924	3.8071985
17	0x391fc70f	0.00015237577
18	0x3e35f4c2	0.17769149
19	0x00000000	0.0
20	0x408edebf	4.4646907
21	0x38f5ad7e	0.00011714826
22	0x3b97abd2	0.004628637
23	0x2d1b545c	8.8294615e-12
24	0x3c845163	0.01615209
25	0x2c5b8a77	3.1198635e-12
26	0x3d462299	0.04837284
27	0x2a745b33	2.1703195e-13
28	0x285632f7	1.1890438e-14
29	0x40de72f1	6.951531
30	0x418d32da	17.64983
31	0x2da8e029	1.9198936e-11
32	0x2cd78af0	6.1260927e-12
33	0x3a84b5b2	0.001012495
34	0x3d151ea3	0.03640617
35	0x2b12b6f6	5.212353e-13
36	0x3ee7b1eb	0.45252928
37	0x2d32c103	1.0160986e-11
38	0x2c9a9a09	4.3940446e-12
39	0x2a439ee1	1.7374601e-13
40	0x2cd28e11	5.9843315e-12
41	0x00000000	0.0
42	0x38f92a83	0.00011881164
43	0x382b74aa	4.087823e-05
44	0x415a3c36	13.6397
45	0x422bfee3	42.998913
46	0x410f5fa8	8.960854
47	0x2948721a	4.450789e-14
48	0x39f80aac	0.00047310197
49	0x356b76a4	8.7716967e-07
50	0x4182b14f	16.336576
51	0x00000000	0.0
52	0x2ceb092e	6.680121e-12
53	0x403d00b2	2.9531674
54	0x3d56176e	0.052268438
55	0x3a90b684	0.0011040722
56	0x412662ad	10.399091
57	0x00000000	0.0
58	0x3b59ee71	0.0033253694
59	0x2d1b111b	8.814528e-12
60	0x00000000	0.0
61	0x2d9e27a9	1.7980133e-11
62	0x00000000	0.0
63	0x3c5313f5	0.012883176
